Neural Network Tools for STM32 family v1.7.0 (stm.ai v8.1.0-19520)
Created date          : 2024-07-31 22:00:04
Parameters            : generate --name network_1 -m D:/linux/MobileFaceNet_Pytorch/model/mobilefacenet_int8.tflite --type tflite --compression none --verbosity 1 --workspace C:\Users\19178\AppData\Local\Temp\mxAI_workspace4257176426570014348342250357515563 --output C:\Users\19178\.stm32cubemx\network_output --allocate-inputs --series stm32h7 --allocate-outputs

Exec/report summary (generate)
------------------------------------------------------------------------------------------------------------
model file         :   D:\linux\MobileFaceNet_Pytorch\model\mobilefacenet_int8.tflite                       
type               :   tflite                                                                               
c_name             :   network_1                                                                            
compression        :   none                                                                                 
options            :   allocate-inputs, allocate-outputs                                                    
optimization       :   balanced                                                                             
target/series      :   stm32h7                                                                              
workspace dir      :   C:\Users\19178\AppData\Local\Temp\mxAI_workspace4257176426570014348342250357515563   
output dir         :   C:\Users\19178\.stm32cubemx\network_output                                           
model_fmt          :   sa/sa per tensor                                                                     
model_name         :   mobilefacenet_int8                                                                   
model_hash         :   65ade14314a63b18db5601d757ec9fb3                                                     
params #           :   989,760 items (995.25 KiB)                                                           
------------------------------------------------------------------------------------------------------------
input 1/1          :   'serving_default_input_30' (domain:activations/**default**)                          
                   :   32256 items, 31.50 KiB, ai_i8, s=0.00781250, zp=-1, (1,112,96,3)                     
output 1/1         :   'conv2d_98' (domain:activations/**default**)                                         
                   :   128 items, 128 B, ai_i8, s=0.02566116, zp=-12, (1,1,1,128)                           
macc               :   194,460,736                                                                          
weights (ro)       :   1,019,136 B (995.25 KiB) (1 segment) / -2,939,904(-74.3%) vs float model             
activations (rw)   :   380,416 B (371.50 KiB) (1 segment) *                                                 
ram (total)        :   380,416 B (371.50 KiB) = 380,416 + 0 + 0                                             
------------------------------------------------------------------------------------------------------------
(*) 'input'/'output' buffers can be used from the activations buffer

Model name - mobilefacenet_int8 ['serving_default_input_30'] ['conv2d_98']
------ --------------------------------------- ---------------------------- --------------- ------------ -------------------------- --- -------------------- ----------------------- ----------------------------- 
m_id   layer (type,original)                   oshape                       param/size              macc               connected to   | c_size               c_macc                  c_type                        
------ --------------------------------------- ---------------------------- --------------- ------------ -------------------------- --- -------------------- ----------------------- ----------------------------- 
0      serving_default_input_30 (Input, )      [b:1,h:112,h:112,w:96,c:3]                                                             |                                              pad_oi8[0]                    
       pad_0 (Pad, PAD)                        [b:1,h:114,h:114,w:98,c:3]                                  serving_default_input_30   |                                              
------ --------------------------------------- ---------------------------- --------------- ------------ -------------------------- --- -------------------- ----------------------- ----------------------------- 
1      conv2d_1 (Conv2D, CONV_2D)              [b:1,h:56,h:56,w:48,c:64]    1,792/1,984        4,644,928                      pad_0   | -1,984(-100.0%)      -4,644,928(-100.0%)     
------ --------------------------------------- ---------------------------- --------------- ------------ -------------------------- --- -------------------- ----------------------- ----------------------------- 
2      nl_2 (Nonlinearity, PRELU)              [b:1,h:56,h:56,w:48,c:64]    64/64                344,064                   conv2d_1   | +1,984(+3100.0%)     +4,644,928(+1350.0%)    conv2d_oi8[1]                 
------ --------------------------------------- ---------------------------- --------------- ------------ -------------------------- --- -------------------- ----------------------- ----------------------------- 
3      conv2d_3 (Conv2D, DEPTHWISE_CONV_2D)    [b:1,h:56,h:56,w:48,c:64]    640/832            1,548,352                       nl_2   | -832(-100.0%)        -1,548,352(-100.0%)     
------ --------------------------------------- ---------------------------- --------------- ------------ -------------------------- --- -------------------- ----------------------- ----------------------------- 
4      nl_4 (Nonlinearity, PRELU)              [b:1,h:56,h:56,w:48,c:64]    64/64                344,064                   conv2d_3   | +832(+1300.0%)       +1,548,352(+450.0%)     pad_oi8/conv2d_oi8[2, 3]      
------ --------------------------------------- ---------------------------- --------------- ------------ -------------------------- --- -------------------- ----------------------- ----------------------------- 
5      conv2d_5 (Conv2D, CONV_2D)              [b:1,h:56,h:56,w:48,c:128]   8,320/8,704       22,020,224                       nl_4   | -8,704(-100.0%)      -22,020,224(-100.0%)    
------ --------------------------------------- ---------------------------- --------------- ------------ -------------------------- --- -------------------- ----------------------- ----------------------------- 
6      nl_6 (Nonlinearity, PRELU)              [b:1,h:56,h:56,w:48,c:128]   128/128              688,128                   conv2d_5   | +8,704(+6800.0%)     +22,020,224(+3200.0%)   conv2d_oi8[4]                 
------ --------------------------------------- ---------------------------- --------------- ------------ -------------------------- --- -------------------- ----------------------- ----------------------------- 
7      pad_7 (Pad, PAD)                        [b:1,h:58,h:58,w:50,c:128]                                                      nl_6   | +1,792(+100.0%)      +946,304(+100.0%)       conv2d_oi8[6]                 
------ --------------------------------------- ---------------------------- --------------- ------------ -------------------------- --- -------------------- ----------------------- ----------------------------- 
8      conv2d_8 (Conv2D, DEPTHWISE_CONV_2D)    [b:1,h:28,h:28,w:24,c:128]   1,280/1,664          774,272                      pad_7   | -1,664(-100.0%)      -774,272(-100.0%)       
------ --------------------------------------- ---------------------------- --------------- ------------ -------------------------- --- -------------------- ----------------------- ----------------------------- 
9      nl_9 (Nonlinearity, PRELU)              [b:1,h:28,h:28,w:24,c:128]   128/128              172,032                   conv2d_8   | -128(-100.0%)        -172,032(-100.0%)       pad_oi8[5]                    
------ --------------------------------------- ---------------------------- --------------- ------------ -------------------------- --- -------------------- ----------------------- ----------------------------- 
10     conv2d_10 (Conv2D, CONV_2D)             [b:1,h:28,h:28,w:24,c:64]    8,256/8,448        5,505,088                       nl_9   |                                              conv2d_oi8[7]                 
------ --------------------------------------- ---------------------------- --------------- ------------ -------------------------- --- -------------------- ----------------------- ----------------------------- 
11     conv2d_11 (Conv2D, CONV_2D)             [b:1,h:28,h:28,w:24,c:128]   8,320/8,704        5,505,152                  conv2d_10   | -8,704(-100.0%)      -5,505,152(-100.0%)     
------ --------------------------------------- ---------------------------- --------------- ------------ -------------------------- --- -------------------- ----------------------- ----------------------------- 
12     nl_12 (Nonlinearity, PRELU)             [b:1,h:28,h:28,w:24,c:128]   128/128              172,032                  conv2d_11   | +8,704(+6800.0%)     +5,505,152(+3200.1%)    conv2d_oi8[8]                 
------ --------------------------------------- ---------------------------- --------------- ------------ -------------------------- --- -------------------- ----------------------- ----------------------------- 
13     conv2d_13 (Conv2D, DEPTHWISE_CONV_2D)   [b:1,h:28,h:28,w:24,c:128]   1,280/1,664          774,272                      nl_12   | -1,664(-100.0%)      -774,272(-100.0%)       
------ --------------------------------------- ---------------------------- --------------- ------------ -------------------------- --- -------------------- ----------------------- ----------------------------- 
14     nl_14 (Nonlinearity, PRELU)             [b:1,h:28,h:28,w:24,c:128]   128/128              172,032                  conv2d_13   | +1,664(+1300.0%)     +774,272(+450.1%)       pad_oi8/conv2d_oi8[9, 10]     
------ --------------------------------------- ---------------------------- --------------- ------------ -------------------------- --- -------------------- ----------------------- ----------------------------- 
15     conv2d_15 (Conv2D, CONV_2D)             [b:1,h:28,h:28,w:24,c:64]    8,256/8,448        5,505,088                      nl_14   |                                              conv2d_oi8[11]                
------ --------------------------------------- ---------------------------- --------------- ------------ -------------------------- --- -------------------- ----------------------- ----------------------------- 
16     eltwise_16 (Eltwise, ADD)               [b:1,h:28,h:28,w:24,c:64]                          43,008                  conv2d_10   |                                              eltwise_integer/sum_oi8[12]   
                                                                                                                          conv2d_15   | 
------ --------------------------------------- ---------------------------- --------------- ------------ -------------------------- --- -------------------- ----------------------- ----------------------------- 
17     conv2d_17 (Conv2D, CONV_2D)             [b:1,h:28,h:28,w:24,c:128]   8,320/8,704        5,505,152                 eltwise_16   | -8,704(-100.0%)      -5,505,152(-100.0%)     
------ --------------------------------------- ---------------------------- --------------- ------------ -------------------------- --- -------------------- ----------------------- ----------------------------- 
18     nl_18 (Nonlinearity, PRELU)             [b:1,h:28,h:28,w:24,c:128]   128/128              172,032                  conv2d_17   | +8,704(+6800.0%)     +5,505,152(+3200.1%)    conv2d_oi8[13]                
------ --------------------------------------- ---------------------------- --------------- ------------ -------------------------- --- -------------------- ----------------------- ----------------------------- 
19     conv2d_19 (Conv2D, DEPTHWISE_CONV_2D)   [b:1,h:28,h:28,w:24,c:128]   1,280/1,664          774,272                      nl_18   | -1,664(-100.0%)      -774,272(-100.0%)       
------ --------------------------------------- ---------------------------- --------------- ------------ -------------------------- --- -------------------- ----------------------- ----------------------------- 
20     nl_20 (Nonlinearity, PRELU)             [b:1,h:28,h:28,w:24,c:128]   128/128              172,032                  conv2d_19   | +1,664(+1300.0%)     +774,272(+450.1%)       pad_oi8/conv2d_oi8[14, 15]    
------ --------------------------------------- ---------------------------- --------------- ------------ -------------------------- --- -------------------- ----------------------- ----------------------------- 
21     conv2d_21 (Conv2D, CONV_2D)             [b:1,h:28,h:28,w:24,c:64]    8,256/8,448        5,505,088                      nl_20   |                                              conv2d_oi8[16]                
------ --------------------------------------- ---------------------------- --------------- ------------ -------------------------- --- -------------------- ----------------------- ----------------------------- 
22     eltwise_22 (Eltwise, ADD)               [b:1,h:28,h:28,w:24,c:64]                          43,008                 eltwise_16   |                                              eltwise_integer/sum_oi8[17]   
                                                                                                                          conv2d_21   | 
------ --------------------------------------- ---------------------------- --------------- ------------ -------------------------- --- -------------------- ----------------------- ----------------------------- 
23     conv2d_23 (Conv2D, CONV_2D)             [b:1,h:28,h:28,w:24,c:128]   8,320/8,704        5,505,152                 eltwise_22   | -8,704(-100.0%)      -5,505,152(-100.0%)     
------ --------------------------------------- ---------------------------- --------------- ------------ -------------------------- --- -------------------- ----------------------- ----------------------------- 
24     nl_24 (Nonlinearity, PRELU)             [b:1,h:28,h:28,w:24,c:128]   128/128              172,032                  conv2d_23   | +8,704(+6800.0%)     +5,505,152(+3200.1%)    conv2d_oi8[18]                
------ --------------------------------------- ---------------------------- --------------- ------------ -------------------------- --- -------------------- ----------------------- ----------------------------- 
25     conv2d_25 (Conv2D, DEPTHWISE_CONV_2D)   [b:1,h:28,h:28,w:24,c:128]   1,280/1,664          774,272                      nl_24   | -1,664(-100.0%)      -774,272(-100.0%)       
------ --------------------------------------- ---------------------------- --------------- ------------ -------------------------- --- -------------------- ----------------------- ----------------------------- 
26     nl_26 (Nonlinearity, PRELU)             [b:1,h:28,h:28,w:24,c:128]   128/128              172,032                  conv2d_25   | +1,664(+1300.0%)     +774,272(+450.1%)       pad_oi8/conv2d_oi8[19, 20]    
------ --------------------------------------- ---------------------------- --------------- ------------ -------------------------- --- -------------------- ----------------------- ----------------------------- 
27     conv2d_27 (Conv2D, CONV_2D)             [b:1,h:28,h:28,w:24,c:64]    8,256/8,448        5,505,088                      nl_26   |                                              conv2d_oi8[21]                
------ --------------------------------------- ---------------------------- --------------- ------------ -------------------------- --- -------------------- ----------------------- ----------------------------- 
28     eltwise_28 (Eltwise, ADD)               [b:1,h:28,h:28,w:24,c:64]                          43,008                 eltwise_22   |                                              eltwise_integer/sum_oi8[22]   
                                                                                                                          conv2d_27   | 
------ --------------------------------------- ---------------------------- --------------- ------------ -------------------------- --- -------------------- ----------------------- ----------------------------- 
29     conv2d_29 (Conv2D, CONV_2D)             [b:1,h:28,h:28,w:24,c:128]   8,320/8,704        5,505,152                 eltwise_28   | -8,704(-100.0%)      -5,505,152(-100.0%)     
------ --------------------------------------- ---------------------------- --------------- ------------ -------------------------- --- -------------------- ----------------------- ----------------------------- 
30     nl_30 (Nonlinearity, PRELU)             [b:1,h:28,h:28,w:24,c:128]   128/128              172,032                  conv2d_29   | +8,704(+6800.0%)     +5,505,152(+3200.1%)    conv2d_oi8[23]                
------ --------------------------------------- ---------------------------- --------------- ------------ -------------------------- --- -------------------- ----------------------- ----------------------------- 
31     conv2d_31 (Conv2D, DEPTHWISE_CONV_2D)   [b:1,h:28,h:28,w:24,c:128]   1,280/1,664          774,272                      nl_30   | -1,664(-100.0%)      -774,272(-100.0%)       
------ --------------------------------------- ---------------------------- --------------- ------------ -------------------------- --- -------------------- ----------------------- ----------------------------- 
32     nl_32 (Nonlinearity, PRELU)             [b:1,h:28,h:28,w:24,c:128]   128/128              172,032                  conv2d_31   | +1,664(+1300.0%)     +774,272(+450.1%)       pad_oi8/conv2d_oi8[24, 25]    
------ --------------------------------------- ---------------------------- --------------- ------------ -------------------------- --- -------------------- ----------------------- ----------------------------- 
33     conv2d_33 (Conv2D, CONV_2D)             [b:1,h:28,h:28,w:24,c:64]    8,256/8,448        5,505,088                      nl_32   |                                              conv2d_oi8[26]                
------ --------------------------------------- ---------------------------- --------------- ------------ -------------------------- --- -------------------- ----------------------- ----------------------------- 
34     eltwise_34 (Eltwise, ADD)               [b:1,h:28,h:28,w:24,c:64]                          43,008                 eltwise_28   |                                              eltwise_integer/sum_oi8[27]   
                                                                                                                          conv2d_33   | 
------ --------------------------------------- ---------------------------- --------------- ------------ -------------------------- --- -------------------- ----------------------- ----------------------------- 
35     conv2d_35 (Conv2D, CONV_2D)             [b:1,h:28,h:28,w:24,c:256]   16,640/17,408     11,010,304                 eltwise_34   | -17,408(-100.0%)     -11,010,304(-100.0%)    
------ --------------------------------------- ---------------------------- --------------- ------------ -------------------------- --- -------------------- ----------------------- ----------------------------- 
36     nl_36 (Nonlinearity, PRELU)             [b:1,h:28,h:28,w:24,c:256]   256/256              344,064                  conv2d_35   | +17,408(+6800.0%)    +11,010,304(+3200.1%)   conv2d_oi8[28]                
------ --------------------------------------- ---------------------------- --------------- ------------ -------------------------- --- -------------------- ----------------------- ----------------------------- 
37     pad_37 (Pad, PAD)                       [b:1,h:30,h:30,w:26,c:256]                                                     nl_36   | +3,584(+100.0%)      +473,344(+100.0%)       conv2d_oi8[30]                
------ --------------------------------------- ---------------------------- --------------- ------------ -------------------------- --- -------------------- ----------------------- ----------------------------- 
38     conv2d_38 (Conv2D, DEPTHWISE_CONV_2D)   [b:1,h:14,h:14,w:12,c:256]   2,560/3,328          387,328                     pad_37   | -3,328(-100.0%)      -387,328(-100.0%)       
------ --------------------------------------- ---------------------------- --------------- ------------ -------------------------- --- -------------------- ----------------------- ----------------------------- 
39     nl_39 (Nonlinearity, PRELU)             [b:1,h:14,h:14,w:12,c:256]   256/256               86,016                  conv2d_38   | -256(-100.0%)        -86,016(-100.0%)        pad_oi8[29]                   
------ --------------------------------------- ---------------------------- --------------- ------------ -------------------------- --- -------------------- ----------------------- ----------------------------- 
40     conv2d_40 (Conv2D, CONV_2D)             [b:1,h:14,h:14,w:12,c:128]   32,896/33,280      5,505,152                      nl_39   |                                              conv2d_oi8[31]                
------ --------------------------------------- ---------------------------- --------------- ------------ -------------------------- --- -------------------- ----------------------- ----------------------------- 
41     conv2d_41 (Conv2D, CONV_2D)             [b:1,h:14,h:14,w:12,c:256]   33,024/33,792      5,505,280                  conv2d_40   | -33,792(-100.0%)     -5,505,280(-100.0%)     
------ --------------------------------------- ---------------------------- --------------- ------------ -------------------------- --- -------------------- ----------------------- ----------------------------- 
42     nl_42 (Nonlinearity, PRELU)             [b:1,h:14,h:14,w:12,c:256]   256/256               86,016                  conv2d_41   | +33,792(+13200.0%)   +5,505,280(+6400.3%)    conv2d_oi8[32]                
------ --------------------------------------- ---------------------------- --------------- ------------ -------------------------- --- -------------------- ----------------------- ----------------------------- 
43     conv2d_43 (Conv2D, DEPTHWISE_CONV_2D)   [b:1,h:14,h:14,w:12,c:256]   2,560/3,328          387,328                      nl_42   | -3,328(-100.0%)      -387,328(-100.0%)       
------ --------------------------------------- ---------------------------- --------------- ------------ -------------------------- --- -------------------- ----------------------- ----------------------------- 
44     nl_44 (Nonlinearity, PRELU)             [b:1,h:14,h:14,w:12,c:256]   256/256               86,016                  conv2d_43   | +3,328(+1300.0%)     +387,328(+450.3%)       pad_oi8/conv2d_oi8[33, 34]    
------ --------------------------------------- ---------------------------- --------------- ------------ -------------------------- --- -------------------- ----------------------- ----------------------------- 
45     conv2d_45 (Conv2D, CONV_2D)             [b:1,h:14,h:14,w:12,c:128]   32,896/33,280      5,505,152                      nl_44   |                                              conv2d_oi8[35]                
------ --------------------------------------- ---------------------------- --------------- ------------ -------------------------- --- -------------------- ----------------------- ----------------------------- 
46     eltwise_46 (Eltwise, ADD)               [b:1,h:14,h:14,w:12,c:128]                         21,504                  conv2d_40   |                                              eltwise_integer/sum_oi8[36]   
                                                                                                                          conv2d_45   | 
------ --------------------------------------- ---------------------------- --------------- ------------ -------------------------- --- -------------------- ----------------------- ----------------------------- 
47     conv2d_47 (Conv2D, CONV_2D)             [b:1,h:14,h:14,w:12,c:256]   33,024/33,792      5,505,280                 eltwise_46   | -33,792(-100.0%)     -5,505,280(-100.0%)     
------ --------------------------------------- ---------------------------- --------------- ------------ -------------------------- --- -------------------- ----------------------- ----------------------------- 
48     nl_48 (Nonlinearity, PRELU)             [b:1,h:14,h:14,w:12,c:256]   256/256               86,016                  conv2d_47   | +33,792(+13200.0%)   +5,505,280(+6400.3%)    conv2d_oi8[37]                
------ --------------------------------------- ---------------------------- --------------- ------------ -------------------------- --- -------------------- ----------------------- ----------------------------- 
49     conv2d_49 (Conv2D, DEPTHWISE_CONV_2D)   [b:1,h:14,h:14,w:12,c:256]   2,560/3,328          387,328                      nl_48   | -3,328(-100.0%)      -387,328(-100.0%)       
------ --------------------------------------- ---------------------------- --------------- ------------ -------------------------- --- -------------------- ----------------------- ----------------------------- 
50     nl_50 (Nonlinearity, PRELU)             [b:1,h:14,h:14,w:12,c:256]   256/256               86,016                  conv2d_49   | +3,328(+1300.0%)     +387,328(+450.3%)       pad_oi8/conv2d_oi8[38, 39]    
------ --------------------------------------- ---------------------------- --------------- ------------ -------------------------- --- -------------------- ----------------------- ----------------------------- 
51     conv2d_51 (Conv2D, CONV_2D)             [b:1,h:14,h:14,w:12,c:128]   32,896/33,280      5,505,152                      nl_50   |                                              conv2d_oi8[40]                
------ --------------------------------------- ---------------------------- --------------- ------------ -------------------------- --- -------------------- ----------------------- ----------------------------- 
52     eltwise_52 (Eltwise, ADD)               [b:1,h:14,h:14,w:12,c:128]                         21,504                 eltwise_46   |                                              eltwise_integer/sum_oi8[41]   
                                                                                                                          conv2d_51   | 
------ --------------------------------------- ---------------------------- --------------- ------------ -------------------------- --- -------------------- ----------------------- ----------------------------- 
53     conv2d_53 (Conv2D, CONV_2D)             [b:1,h:14,h:14,w:12,c:256]   33,024/33,792      5,505,280                 eltwise_52   | -33,792(-100.0%)     -5,505,280(-100.0%)     
------ --------------------------------------- ---------------------------- --------------- ------------ -------------------------- --- -------------------- ----------------------- ----------------------------- 
54     nl_54 (Nonlinearity, PRELU)             [b:1,h:14,h:14,w:12,c:256]   256/256               86,016                  conv2d_53   | +33,792(+13200.0%)   +5,505,280(+6400.3%)    conv2d_oi8[42]                
------ --------------------------------------- ---------------------------- --------------- ------------ -------------------------- --- -------------------- ----------------------- ----------------------------- 
55     conv2d_55 (Conv2D, DEPTHWISE_CONV_2D)   [b:1,h:14,h:14,w:12,c:256]   2,560/3,328          387,328                      nl_54   | -3,328(-100.0%)      -387,328(-100.0%)       
------ --------------------------------------- ---------------------------- --------------- ------------ -------------------------- --- -------------------- ----------------------- ----------------------------- 
56     nl_56 (Nonlinearity, PRELU)             [b:1,h:14,h:14,w:12,c:256]   256/256               86,016                  conv2d_55   | +3,328(+1300.0%)     +387,328(+450.3%)       pad_oi8/conv2d_oi8[43, 44]    
------ --------------------------------------- ---------------------------- --------------- ------------ -------------------------- --- -------------------- ----------------------- ----------------------------- 
57     conv2d_57 (Conv2D, CONV_2D)             [b:1,h:14,h:14,w:12,c:128]   32,896/33,280      5,505,152                      nl_56   |                                              conv2d_oi8[45]                
------ --------------------------------------- ---------------------------- --------------- ------------ -------------------------- --- -------------------- ----------------------- ----------------------------- 
58     eltwise_58 (Eltwise, ADD)               [b:1,h:14,h:14,w:12,c:128]                         21,504                 eltwise_52   |                                              eltwise_integer/sum_oi8[46]   
                                                                                                                          conv2d_57   | 
------ --------------------------------------- ---------------------------- --------------- ------------ -------------------------- --- -------------------- ----------------------- ----------------------------- 
59     conv2d_59 (Conv2D, CONV_2D)             [b:1,h:14,h:14,w:12,c:256]   33,024/33,792      5,505,280                 eltwise_58   | -33,792(-100.0%)     -5,505,280(-100.0%)     
------ --------------------------------------- ---------------------------- --------------- ------------ -------------------------- --- -------------------- ----------------------- ----------------------------- 
60     nl_60 (Nonlinearity, PRELU)             [b:1,h:14,h:14,w:12,c:256]   256/256               86,016                  conv2d_59   | +33,792(+13200.0%)   +5,505,280(+6400.3%)    conv2d_oi8[47]                
------ --------------------------------------- ---------------------------- --------------- ------------ -------------------------- --- -------------------- ----------------------- ----------------------------- 
61     conv2d_61 (Conv2D, DEPTHWISE_CONV_2D)   [b:1,h:14,h:14,w:12,c:256]   2,560/3,328          387,328                      nl_60   | -3,328(-100.0%)      -387,328(-100.0%)       
------ --------------------------------------- ---------------------------- --------------- ------------ -------------------------- --- -------------------- ----------------------- ----------------------------- 
62     nl_62 (Nonlinearity, PRELU)             [b:1,h:14,h:14,w:12,c:256]   256/256               86,016                  conv2d_61   | +3,328(+1300.0%)     +387,328(+450.3%)       pad_oi8/conv2d_oi8[48, 49]    
------ --------------------------------------- ---------------------------- --------------- ------------ -------------------------- --- -------------------- ----------------------- ----------------------------- 
63     conv2d_63 (Conv2D, CONV_2D)             [b:1,h:14,h:14,w:12,c:128]   32,896/33,280      5,505,152                      nl_62   |                                              conv2d_oi8[50]                
------ --------------------------------------- ---------------------------- --------------- ------------ -------------------------- --- -------------------- ----------------------- ----------------------------- 
64     eltwise_64 (Eltwise, ADD)               [b:1,h:14,h:14,w:12,c:128]                         21,504                 eltwise_58   |                                              eltwise_integer/sum_oi8[51]   
                                                                                                                          conv2d_63   | 
------ --------------------------------------- ---------------------------- --------------- ------------ -------------------------- --- -------------------- ----------------------- ----------------------------- 
65     conv2d_65 (Conv2D, CONV_2D)             [b:1,h:14,h:14,w:12,c:256]   33,024/33,792      5,505,280                 eltwise_64   | -33,792(-100.0%)     -5,505,280(-100.0%)     
------ --------------------------------------- ---------------------------- --------------- ------------ -------------------------- --- -------------------- ----------------------- ----------------------------- 
66     nl_66 (Nonlinearity, PRELU)             [b:1,h:14,h:14,w:12,c:256]   256/256               86,016                  conv2d_65   | +33,792(+13200.0%)   +5,505,280(+6400.3%)    conv2d_oi8[52]                
------ --------------------------------------- ---------------------------- --------------- ------------ -------------------------- --- -------------------- ----------------------- ----------------------------- 
67     conv2d_67 (Conv2D, DEPTHWISE_CONV_2D)   [b:1,h:14,h:14,w:12,c:256]   2,560/3,328          387,328                      nl_66   | -3,328(-100.0%)      -387,328(-100.0%)       
------ --------------------------------------- ---------------------------- --------------- ------------ -------------------------- --- -------------------- ----------------------- ----------------------------- 
68     nl_68 (Nonlinearity, PRELU)             [b:1,h:14,h:14,w:12,c:256]   256/256               86,016                  conv2d_67   | +3,328(+1300.0%)     +387,328(+450.3%)       pad_oi8/conv2d_oi8[53, 54]    
------ --------------------------------------- ---------------------------- --------------- ------------ -------------------------- --- -------------------- ----------------------- ----------------------------- 
69     conv2d_69 (Conv2D, CONV_2D)             [b:1,h:14,h:14,w:12,c:128]   32,896/33,280      5,505,152                      nl_68   |                                              conv2d_oi8[55]                
------ --------------------------------------- ---------------------------- --------------- ------------ -------------------------- --- -------------------- ----------------------- ----------------------------- 
70     eltwise_70 (Eltwise, ADD)               [b:1,h:14,h:14,w:12,c:128]                         21,504                 eltwise_64   |                                              eltwise_integer/sum_oi8[56]   
                                                                                                                          conv2d_69   | 
------ --------------------------------------- ---------------------------- --------------- ------------ -------------------------- --- -------------------- ----------------------- ----------------------------- 
71     conv2d_71 (Conv2D, CONV_2D)             [b:1,h:14,h:14,w:12,c:256]   33,024/33,792      5,505,280                 eltwise_70   | -33,792(-100.0%)     -5,505,280(-100.0%)     
------ --------------------------------------- ---------------------------- --------------- ------------ -------------------------- --- -------------------- ----------------------- ----------------------------- 
72     nl_72 (Nonlinearity, PRELU)             [b:1,h:14,h:14,w:12,c:256]   256/256               86,016                  conv2d_71   | +33,792(+13200.0%)   +5,505,280(+6400.3%)    conv2d_oi8[57]                
------ --------------------------------------- ---------------------------- --------------- ------------ -------------------------- --- -------------------- ----------------------- ----------------------------- 
73     conv2d_73 (Conv2D, DEPTHWISE_CONV_2D)   [b:1,h:14,h:14,w:12,c:256]   2,560/3,328          387,328                      nl_72   | -3,328(-100.0%)      -387,328(-100.0%)       
------ --------------------------------------- ---------------------------- --------------- ------------ -------------------------- --- -------------------- ----------------------- ----------------------------- 
74     nl_74 (Nonlinearity, PRELU)             [b:1,h:14,h:14,w:12,c:256]   256/256               86,016                  conv2d_73   | +3,328(+1300.0%)     +387,328(+450.3%)       pad_oi8/conv2d_oi8[58, 59]    
------ --------------------------------------- ---------------------------- --------------- ------------ -------------------------- --- -------------------- ----------------------- ----------------------------- 
75     conv2d_75 (Conv2D, CONV_2D)             [b:1,h:14,h:14,w:12,c:128]   32,896/33,280      5,505,152                      nl_74   |                                              conv2d_oi8[60]                
------ --------------------------------------- ---------------------------- --------------- ------------ -------------------------- --- -------------------- ----------------------- ----------------------------- 
76     eltwise_76 (Eltwise, ADD)               [b:1,h:14,h:14,w:12,c:128]                         21,504                 eltwise_70   |                                              eltwise_integer/sum_oi8[61]   
                                                                                                                          conv2d_75   | 
------ --------------------------------------- ---------------------------- --------------- ------------ -------------------------- --- -------------------- ----------------------- ----------------------------- 
77     conv2d_77 (Conv2D, CONV_2D)             [b:1,h:14,h:14,w:12,c:512]   66,048/67,584     11,010,560                 eltwise_76   | -67,584(-100.0%)     -11,010,560(-100.0%)    
------ --------------------------------------- ---------------------------- --------------- ------------ -------------------------- --- -------------------- ----------------------- ----------------------------- 
78     nl_78 (Nonlinearity, PRELU)             [b:1,h:14,h:14,w:12,c:512]   512/512              172,032                  conv2d_77   | +67,584(+13200.0%)   +11,010,560(+6400.3%)   conv2d_oi8[62]                
------ --------------------------------------- ---------------------------- --------------- ------------ -------------------------- --- -------------------- ----------------------- ----------------------------- 
79     pad_79 (Pad, PAD)                       [b:1,h:16,h:16,w:14,c:512]                                                     nl_78   | +7,168(+100.0%)      +237,056(+100.0%)       conv2d_oi8[64]                
------ --------------------------------------- ---------------------------- --------------- ------------ -------------------------- --- -------------------- ----------------------- ----------------------------- 
80     conv2d_80 (Conv2D, DEPTHWISE_CONV_2D)   [b:1,h:7,h:7,w:6,c:512]      5,120/6,656          194,048                     pad_79   | -6,656(-100.0%)      -194,048(-100.0%)       
------ --------------------------------------- ---------------------------- --------------- ------------ -------------------------- --- -------------------- ----------------------- ----------------------------- 
81     nl_81 (Nonlinearity, PRELU)             [b:1,h:7,h:7,w:6,c:512]      512/512               43,008                  conv2d_80   | -512(-100.0%)        -43,008(-100.0%)        pad_oi8[63]                   
------ --------------------------------------- ---------------------------- --------------- ------------ -------------------------- --- -------------------- ----------------------- ----------------------------- 
82     conv2d_82 (Conv2D, CONV_2D)             [b:1,h:7,h:7,w:6,c:128]      65,664/66,048      2,752,640                      nl_81   |                                              conv2d_oi8[65]                
------ --------------------------------------- ---------------------------- --------------- ------------ -------------------------- --- -------------------- ----------------------- ----------------------------- 
83     conv2d_83 (Conv2D, CONV_2D)             [b:1,h:7,h:7,w:6,c:256]      33,024/33,792      1,376,512                  conv2d_82   | -33,792(-100.0%)     -1,376,512(-100.0%)     
------ --------------------------------------- ---------------------------- --------------- ------------ -------------------------- --- -------------------- ----------------------- ----------------------------- 
84     nl_84 (Nonlinearity, PRELU)             [b:1,h:7,h:7,w:6,c:256]      256/256               21,504                  conv2d_83   | +33,792(+13200.0%)   +1,376,512(+6401.2%)    conv2d_oi8[66]                
------ --------------------------------------- ---------------------------- --------------- ------------ -------------------------- --- -------------------- ----------------------- ----------------------------- 
85     conv2d_85 (Conv2D, DEPTHWISE_CONV_2D)   [b:1,h:7,h:7,w:6,c:256]      2,560/3,328           97,024                      nl_84   | -3,328(-100.0%)      -97,024(-100.0%)        
------ --------------------------------------- ---------------------------- --------------- ------------ -------------------------- --- -------------------- ----------------------- ----------------------------- 
86     nl_86 (Nonlinearity, PRELU)             [b:1,h:7,h:7,w:6,c:256]      256/256               21,504                  conv2d_85   | +3,328(+1300.0%)     +97,024(+451.2%)        pad_oi8/conv2d_oi8[67, 68]    
------ --------------------------------------- ---------------------------- --------------- ------------ -------------------------- --- -------------------- ----------------------- ----------------------------- 
87     conv2d_87 (Conv2D, CONV_2D)             [b:1,h:7,h:7,w:6,c:128]      32,896/33,280      1,376,384                      nl_86   |                                              conv2d_oi8[69]                
------ --------------------------------------- ---------------------------- --------------- ------------ -------------------------- --- -------------------- ----------------------- ----------------------------- 
88     eltwise_88 (Eltwise, ADD)               [b:1,h:7,h:7,w:6,c:128]                             5,376                  conv2d_82   |                                              eltwise_integer/sum_oi8[70]   
                                                                                                                          conv2d_87   | 
------ --------------------------------------- ---------------------------- --------------- ------------ -------------------------- --- -------------------- ----------------------- ----------------------------- 
89     conv2d_89 (Conv2D, CONV_2D)             [b:1,h:7,h:7,w:6,c:256]      33,024/33,792      1,376,512                 eltwise_88   | -33,792(-100.0%)     -1,376,512(-100.0%)     
------ --------------------------------------- ---------------------------- --------------- ------------ -------------------------- --- -------------------- ----------------------- ----------------------------- 
90     nl_90 (Nonlinearity, PRELU)             [b:1,h:7,h:7,w:6,c:256]      256/256               21,504                  conv2d_89   | +33,792(+13200.0%)   +1,376,512(+6401.2%)    conv2d_oi8[71]                
------ --------------------------------------- ---------------------------- --------------- ------------ -------------------------- --- -------------------- ----------------------- ----------------------------- 
91     conv2d_91 (Conv2D, DEPTHWISE_CONV_2D)   [b:1,h:7,h:7,w:6,c:256]      2,560/3,328           97,024                      nl_90   | -3,328(-100.0%)      -97,024(-100.0%)        
------ --------------------------------------- ---------------------------- --------------- ------------ -------------------------- --- -------------------- ----------------------- ----------------------------- 
92     nl_92 (Nonlinearity, PRELU)             [b:1,h:7,h:7,w:6,c:256]      256/256               21,504                  conv2d_91   | +3,328(+1300.0%)     +97,024(+451.2%)        pad_oi8/conv2d_oi8[72, 73]    
------ --------------------------------------- ---------------------------- --------------- ------------ -------------------------- --- -------------------- ----------------------- ----------------------------- 
93     conv2d_93 (Conv2D, CONV_2D)             [b:1,h:7,h:7,w:6,c:128]      32,896/33,280      1,376,384                      nl_92   |                                              conv2d_oi8[74]                
------ --------------------------------------- ---------------------------- --------------- ------------ -------------------------- --- -------------------- ----------------------- ----------------------------- 
94     eltwise_94 (Eltwise, ADD)               [b:1,h:7,h:7,w:6,c:128]                             5,376                 eltwise_88   |                                              eltwise_integer/sum_oi8[75]   
                                                                                                                          conv2d_93   | 
------ --------------------------------------- ---------------------------- --------------- ------------ -------------------------- --- -------------------- ----------------------- ----------------------------- 
95     conv2d_95 (Conv2D, CONV_2D)             [b:1,h:7,h:7,w:6,c:512]      66,048/67,584      2,753,024                 eltwise_94   | -67,584(-100.0%)     -2,753,024(-100.0%)     
------ --------------------------------------- ---------------------------- --------------- ------------ -------------------------- --- -------------------- ----------------------- ----------------------------- 
96     nl_96 (Nonlinearity, PRELU)             [b:1,h:7,h:7,w:6,c:512]      512/512               43,008                  conv2d_95   | +67,584(+13200.0%)   +2,753,024(+6401.2%)    conv2d_oi8[76]                
------ --------------------------------------- ---------------------------- --------------- ------------ -------------------------- --- -------------------- ----------------------- ----------------------------- 
97     conv2d_97 (Conv2D, DEPTHWISE_CONV_2D)   [b:1,h:1,h:1,w:1,c:512]      22,016/23,552         22,016                      nl_96   |                                              conv2d_oi8[77]                
------ --------------------------------------- ---------------------------- --------------- ------------ -------------------------- --- -------------------- ----------------------- ----------------------------- 
98     conv2d_98 (Conv2D, CONV_2D)             [b:1,h:1,h:1,w:1,c:128]      65,664/66,048         65,664                  conv2d_97   |                                              conv2d_oi8[o][78]             
------ --------------------------------------- ---------------------------- --------------- ------------ -------------------------- --- -------------------- ----------------------- ----------------------------- 
99     reshape_99 (Reshape, RESHAPE)           [b:1,c:128]                                                                conv2d_98   |                                              
------ --------------------------------------- ---------------------------- --------------- ------------ -------------------------- --- -------------------- ----------------------- ----------------------------- 
model/c-model: macc=194,460,736/194,460,736  weights=1,019,136/1,019,136  activations=--/380,416 io=--/0



Generated C-graph summary
------------------------------------------------------------------------------------------------------------------------
model name            : mobilefacenet_int8
c-name                : network_1
c-node #              : 79
c-array #             : 296
activations size      : 380416 (1 segment)
weights size          : 1019136 (1 segment)
macc                  : 194460736
inputs                : ['serving_default_input_30_output']
outputs               : ['conv2d_98_output']

C-Arrays (296)
------ --------------------------------- --------------- ------------------------- --------------- -------------- --------- 
c_id   name (*_array)                    item/size       domain/mem-pool           c-type          fmt            comment   
------ --------------------------------- --------------- ------------------------- --------------- -------------- --------- 
0      conv2d_82_weights                 65536/65536     weights/weights           const int8_t    ss8/ch(128)              
1      conv2d_82_bias                    128/512         weights/weights           const int32_t   ss32/ch(128)             
2      conv2d_83_weights                 32768/32768     weights/weights           const int8_t    ss8/ch(256)              
3      conv2d_83_bias                    256/1024        weights/weights           const int32_t   ss32/ch(256)             
4      conv2d_83_alpha                   256/256         weights/weights           const int8_t    ss8                      
5      conv2d_85_weights                 2304/2304       weights/weights           const int8_t    ss8/ch(256)              
6      conv2d_85_bias                    256/1024        weights/weights           const int32_t   ss32/ch(256)             
7      conv2d_85_alpha                   256/256         weights/weights           const int8_t    ss8                      
8      conv2d_87_weights                 32768/32768     weights/weights           const int8_t    ss8/ch(128)              
9      conv2d_87_bias                    128/512         weights/weights           const int32_t   ss32/ch(128)             
10     serving_default_input_30_output   32256/32256     activations/**default**   int8_t          sa8            /input    
11     pad_0_output                      33516/33516     activations/**default**   int8_t          sa8                      
12     conv2d_89_weights                 32768/32768     weights/weights           const int8_t    ss8/ch(256)              
13     conv2d_1_output                   172032/172032   activations/**default**   int8_t          sa8                      
14     conv2d_89_bias                    256/1024        weights/weights           const int32_t   ss32/ch(256)             
15     conv2d_3_pad_before_output        185600/185600   activations/**default**   int8_t          sa8                      
16     conv2d_3_output                   172032/172032   activations/**default**   int8_t          sa8                      
17     conv2d_89_alpha                   256/256         weights/weights           const int8_t    ss8                      
18     conv2d_5_output                   344064/344064   activations/**default**   int8_t          sa8                      
19     conv2d_91_weights                 2304/2304       weights/weights           const int8_t    ss8/ch(256)              
20     conv2d_8_pad_before_output        371200/371200   activations/**default**   int8_t          sa8                      
21     conv2d_8_output                   86016/86016     activations/**default**   int8_t          sa8                      
22     conv2d_91_bias                    256/1024        weights/weights           const int32_t   ss32/ch(256)             
23     conv2d_10_output                  43008/43008     activations/**default**   int8_t          sa8                      
24     conv2d_91_alpha                   256/256         weights/weights           const int8_t    ss8                      
25     conv2d_11_output                  86016/86016     activations/**default**   int8_t          sa8                      
26     conv2d_13_pad_before_output       99840/99840     activations/**default**   int8_t          sa8                      
27     conv2d_93_weights                 32768/32768     weights/weights           const int8_t    ss8/ch(128)              
28     conv2d_13_output                  86016/86016     activations/**default**   int8_t          sa8                      
29     conv2d_93_bias                    128/512         weights/weights           const int32_t   ss32/ch(128)             
30     conv2d_15_output                  43008/43008     activations/**default**   int8_t          sa8                      
31     eltwise_16_output                 43008/43008     activations/**default**   int8_t          sa8                      
32     conv2d_95_weights                 65536/65536     weights/weights           const int8_t    ss8/ch(512)              
33     conv2d_17_output                  86016/86016     activations/**default**   int8_t          sa8                      
34     conv2d_95_bias                    512/2048        weights/weights           const int32_t   ss32/ch(512)             
35     conv2d_19_pad_before_output       99840/99840     activations/**default**   int8_t          sa8                      
36     conv2d_19_output                  86016/86016     activations/**default**   int8_t          sa8                      
37     conv2d_95_alpha                   512/512         weights/weights           const int8_t    ss8                      
38     conv2d_21_output                  43008/43008     activations/**default**   int8_t          sa8                      
39     conv2d_97_weights                 21504/21504     weights/weights           const int8_t    ss8/ch(512)              
40     eltwise_22_output                 43008/43008     activations/**default**   int8_t          sa8                      
41     conv2d_23_output                  86016/86016     activations/**default**   int8_t          sa8                      
42     conv2d_97_bias                    512/2048        weights/weights           const int32_t   ss32/ch(512)             
43     conv2d_25_pad_before_output       99840/99840     activations/**default**   int8_t          sa8                      
44     conv2d_98_weights                 65536/65536     weights/weights           const int8_t    ss8/ch(128)              
45     conv2d_25_output                  86016/86016     activations/**default**   int8_t          sa8                      
46     conv2d_27_output                  43008/43008     activations/**default**   int8_t          sa8                      
47     conv2d_98_bias                    128/512         weights/weights           const int32_t   ss32/ch(128)             
48     eltwise_28_output                 43008/43008     activations/**default**   int8_t          sa8                      
49     conv2d_29_output                  86016/86016     activations/**default**   int8_t          sa8                      
50     conv2d_31_pad_before_output       99840/99840     activations/**default**   int8_t          sa8                      
51     conv2d_1_scratch0                 4460/4460       activations/**default**   int8_t          s8                       
52     conv2d_31_output                  86016/86016     activations/**default**   int8_t          sa8                      
53     conv2d_33_output                  43008/43008     activations/**default**   int8_t          sa8                      
54     conv2d_1_scratch1                 172032/172032   activations/**default**   int8_t          sa8                      
55     eltwise_34_output                 43008/43008     activations/**default**   int8_t          sa8                      
56     conv2d_35_output                  172032/172032   activations/**default**   int8_t          sa8                      
57     conv2d_38_pad_before_output       199680/199680   activations/**default**   int8_t          sa8                      
58     conv2d_3_scratch0                 2369/2369       activations/**default**   int8_t          s8                       
59     conv2d_38_output                  43008/43008     activations/**default**   int8_t          sa8                      
60     conv2d_40_output                  21504/21504     activations/**default**   int8_t          sa8                      
61     conv2d_3_scratch1                 172032/172032   activations/**default**   int8_t          sa8                      
62     conv2d_41_output                  43008/43008     activations/**default**   int8_t          sa8                      
63     conv2d_43_pad_before_output       57344/57344     activations/**default**   int8_t          sa8                      
64     conv2d_43_output                  43008/43008     activations/**default**   int8_t          sa8                      
65     conv2d_5_scratch0                 1536/1536       activations/**default**   int8_t          s8                       
66     conv2d_45_output                  21504/21504     activations/**default**   int8_t          sa8                      
67     eltwise_46_output                 21504/21504     activations/**default**   int8_t          sa8                      
68     conv2d_5_scratch1                 344064/344064   activations/**default**   int8_t          sa8                      
69     conv2d_47_output                  43008/43008     activations/**default**   int8_t          sa8                      
70     conv2d_49_pad_before_output       57344/57344     activations/**default**   int8_t          sa8                      
71     conv2d_49_output                  43008/43008     activations/**default**   int8_t          sa8                      
72     conv2d_8_scratch0                 4737/4737       activations/**default**   int8_t          s8                       
73     conv2d_51_output                  21504/21504     activations/**default**   int8_t          sa8                      
74     eltwise_52_output                 21504/21504     activations/**default**   int8_t          sa8                      
75     conv2d_8_scratch1                 86016/86016     activations/**default**   int8_t          sa8                      
76     conv2d_53_output                  43008/43008     activations/**default**   int8_t          sa8                      
77     conv2d_55_pad_before_output       57344/57344     activations/**default**   int8_t          sa8                      
78     conv2d_55_output                  43008/43008     activations/**default**   int8_t          sa8                      
79     conv2d_10_scratch0                1152/1152       activations/**default**   int8_t          s8                       
80     conv2d_57_output                  21504/21504     activations/**default**   int8_t          sa8                      
81     eltwise_58_output                 21504/21504     activations/**default**   int8_t          sa8                      
82     conv2d_59_output                  43008/43008     activations/**default**   int8_t          sa8                      
83     conv2d_11_scratch0                1536/1536       activations/**default**   int8_t          s8                       
84     conv2d_61_pad_before_output       57344/57344     activations/**default**   int8_t          sa8                      
85     conv2d_61_output                  43008/43008     activations/**default**   int8_t          sa8                      
86     conv2d_11_scratch1                86016/86016     activations/**default**   int8_t          sa8                      
87     conv2d_63_output                  21504/21504     activations/**default**   int8_t          sa8                      
88     eltwise_64_output                 21504/21504     activations/**default**   int8_t          sa8                      
89     conv2d_65_output                  43008/43008     activations/**default**   int8_t          sa8                      
90     conv2d_13_scratch0                4737/4737       activations/**default**   int8_t          s8                       
91     conv2d_67_pad_before_output       57344/57344     activations/**default**   int8_t          sa8                      
92     conv2d_67_output                  43008/43008     activations/**default**   int8_t          sa8                      
93     conv2d_13_scratch1                86016/86016     activations/**default**   int8_t          sa8                      
94     conv2d_69_output                  21504/21504     activations/**default**   int8_t          sa8                      
95     eltwise_70_output                 21504/21504     activations/**default**   int8_t          sa8                      
96     conv2d_71_output                  43008/43008     activations/**default**   int8_t          sa8                      
97     conv2d_15_scratch0                1152/1152       activations/**default**   int8_t          s8                       
98     conv2d_73_pad_before_output       57344/57344     activations/**default**   int8_t          sa8                      
99     conv2d_73_output                  43008/43008     activations/**default**   int8_t          sa8                      
100    conv2d_75_output                  21504/21504     activations/**default**   int8_t          sa8                      
101    conv2d_17_scratch0                1536/1536       activations/**default**   int8_t          s8                       
102    eltwise_76_output                 21504/21504     activations/**default**   int8_t          sa8                      
103    conv2d_77_output                  86016/86016     activations/**default**   int8_t          sa8                      
104    conv2d_17_scratch1                86016/86016     activations/**default**   int8_t          sa8                      
105    conv2d_80_pad_before_output       114688/114688   activations/**default**   int8_t          sa8                      
106    conv2d_80_output                  21504/21504     activations/**default**   int8_t          sa8                      
107    conv2d_82_output                  5376/5376       activations/**default**   int8_t          sa8                      
108    conv2d_19_scratch0                4737/4737       activations/**default**   int8_t          s8                       
109    conv2d_83_output                  10752/10752     activations/**default**   int8_t          sa8                      
110    conv2d_85_pad_before_output       18432/18432     activations/**default**   int8_t          sa8                      
111    conv2d_19_scratch1                86016/86016     activations/**default**   int8_t          sa8                      
112    conv2d_85_output                  10752/10752     activations/**default**   int8_t          sa8                      
113    conv2d_87_output                  5376/5376       activations/**default**   int8_t          sa8                      
114    eltwise_88_output                 5376/5376       activations/**default**   int8_t          sa8                      
115    conv2d_21_scratch0                1152/1152       activations/**default**   int8_t          s8                       
116    conv2d_89_output                  10752/10752     activations/**default**   int8_t          sa8                      
117    conv2d_91_pad_before_output       18432/18432     activations/**default**   int8_t          sa8                      
118    conv2d_91_output                  10752/10752     activations/**default**   int8_t          sa8                      
119    conv2d_23_scratch0                1536/1536       activations/**default**   int8_t          s8                       
120    conv2d_93_output                  5376/5376       activations/**default**   int8_t          sa8                      
121    eltwise_94_output                 5376/5376       activations/**default**   int8_t          sa8                      
122    conv2d_23_scratch1                86016/86016     activations/**default**   int8_t          sa8                      
123    conv2d_95_output                  21504/21504     activations/**default**   int8_t          sa8                      
124    conv2d_97_output                  512/512         activations/**default**   int8_t          sa8                      
125    conv2d_98_output                  128/128         activations/**default**   int8_t          sa8            /output   
126    conv2d_25_scratch0                4737/4737       activations/**default**   int8_t          s8                       
127    conv2d_1_weights                  1728/1728       weights/weights           const int8_t    ss8/ch(64)               
128    conv2d_25_scratch1                86016/86016     activations/**default**   int8_t          sa8                      
129    conv2d_1_bias                     64/256          weights/weights           const int32_t   ss32/ch(64)              
130    conv2d_1_alpha                    64/64           weights/weights           const int8_t    ss8                      
131    conv2d_27_scratch0                1152/1152       activations/**default**   int8_t          s8                       
132    conv2d_3_weights                  576/576         weights/weights           const int8_t    ss8/ch(64)               
133    conv2d_3_bias                     64/256          weights/weights           const int32_t   ss32/ch(64)              
134    conv2d_29_scratch0                1536/1536       activations/**default**   int8_t          s8                       
135    conv2d_3_alpha                    64/64           weights/weights           const int8_t    ss8                      
136    conv2d_5_weights                  8192/8192       weights/weights           const int8_t    ss8/ch(128)              
137    conv2d_29_scratch1                86016/86016     activations/**default**   int8_t          sa8                      
138    conv2d_5_bias                     128/512         weights/weights           const int32_t   ss32/ch(128)             
139    conv2d_5_alpha                    128/128         weights/weights           const int8_t    ss8                      
140    conv2d_31_scratch0                4737/4737       activations/**default**   int8_t          s8                       
141    conv2d_8_weights                  1152/1152       weights/weights           const int8_t    ss8/ch(128)              
142    conv2d_31_scratch1                86016/86016     activations/**default**   int8_t          sa8                      
143    conv2d_8_bias                     128/512         weights/weights           const int32_t   ss32/ch(128)             
144    conv2d_8_alpha                    128/128         weights/weights           const int8_t    ss8                      
145    conv2d_33_scratch0                1152/1152       activations/**default**   int8_t          s8                       
146    conv2d_10_weights                 8192/8192       weights/weights           const int8_t    ss8/ch(64)               
147    conv2d_10_bias                    64/256          weights/weights           const int32_t   ss32/ch(64)              
148    conv2d_35_scratch0                2816/2816       activations/**default**   int8_t          s8                       
149    conv2d_11_weights                 8192/8192       weights/weights           const int8_t    ss8/ch(128)              
150    conv2d_35_scratch1                172032/172032   activations/**default**   int8_t          sa8                      
151    conv2d_11_bias                    128/512         weights/weights           const int32_t   ss32/ch(128)             
152    conv2d_11_alpha                   128/128         weights/weights           const int8_t    ss8                      
153    conv2d_38_scratch0                9473/9473       activations/**default**   int8_t          s8                       
154    conv2d_13_weights                 1152/1152       weights/weights           const int8_t    ss8/ch(128)              
155    conv2d_13_bias                    128/512         weights/weights           const int32_t   ss32/ch(128)             
156    conv2d_38_scratch1                43008/43008     activations/**default**   int8_t          sa8                      
157    conv2d_13_alpha                   128/128         weights/weights           const int8_t    ss8                      
158    conv2d_15_weights                 8192/8192       weights/weights           const int8_t    ss8/ch(64)               
159    conv2d_40_scratch0                2304/2304       activations/**default**   int8_t          s8                       
160    conv2d_15_bias                    64/256          weights/weights           const int32_t   ss32/ch(64)              
161    conv2d_17_weights                 8192/8192       weights/weights           const int8_t    ss8/ch(128)              
162    conv2d_41_scratch0                3072/3072       activations/**default**   int8_t          s8                       
163    conv2d_17_bias                    128/512         weights/weights           const int32_t   ss32/ch(128)             
164    conv2d_41_scratch1                43008/43008     activations/**default**   int8_t          sa8                      
165    conv2d_17_alpha                   128/128         weights/weights           const int8_t    ss8                      
166    conv2d_19_weights                 1152/1152       weights/weights           const int8_t    ss8/ch(128)              
167    conv2d_43_scratch0                9473/9473       activations/**default**   int8_t          s8                       
168    conv2d_19_bias                    128/512         weights/weights           const int32_t   ss32/ch(128)             
169    conv2d_43_scratch1                43008/43008     activations/**default**   int8_t          sa8                      
170    conv2d_19_alpha                   128/128         weights/weights           const int8_t    ss8                      
171    conv2d_21_weights                 8192/8192       weights/weights           const int8_t    ss8/ch(64)               
172    conv2d_45_scratch0                2304/2304       activations/**default**   int8_t          s8                       
173    conv2d_21_bias                    64/256          weights/weights           const int32_t   ss32/ch(64)              
174    conv2d_23_weights                 8192/8192       weights/weights           const int8_t    ss8/ch(128)              
175    conv2d_47_scratch0                3072/3072       activations/**default**   int8_t          s8                       
176    conv2d_23_bias                    128/512         weights/weights           const int32_t   ss32/ch(128)             
177    conv2d_23_alpha                   128/128         weights/weights           const int8_t    ss8                      
178    conv2d_47_scratch1                43008/43008     activations/**default**   int8_t          sa8                      
179    conv2d_25_weights                 1152/1152       weights/weights           const int8_t    ss8/ch(128)              
180    conv2d_25_bias                    128/512         weights/weights           const int32_t   ss32/ch(128)             
181    conv2d_49_scratch0                9473/9473       activations/**default**   int8_t          s8                       
182    conv2d_25_alpha                   128/128         weights/weights           const int8_t    ss8                      
183    conv2d_49_scratch1                43008/43008     activations/**default**   int8_t          sa8                      
184    conv2d_27_weights                 8192/8192       weights/weights           const int8_t    ss8/ch(64)               
185    conv2d_27_bias                    64/256          weights/weights           const int32_t   ss32/ch(64)              
186    conv2d_51_scratch0                2304/2304       activations/**default**   int8_t          s8                       
187    conv2d_29_weights                 8192/8192       weights/weights           const int8_t    ss8/ch(128)              
188    conv2d_29_bias                    128/512         weights/weights           const int32_t   ss32/ch(128)             
189    conv2d_53_scratch0                3072/3072       activations/**default**   int8_t          s8                       
190    conv2d_29_alpha                   128/128         weights/weights           const int8_t    ss8                      
191    conv2d_53_scratch1                43008/43008     activations/**default**   int8_t          sa8                      
192    conv2d_31_weights                 1152/1152       weights/weights           const int8_t    ss8/ch(128)              
193    conv2d_31_bias                    128/512         weights/weights           const int32_t   ss32/ch(128)             
194    conv2d_55_scratch0                9473/9473       activations/**default**   int8_t          s8                       
195    conv2d_31_alpha                   128/128         weights/weights           const int8_t    ss8                      
196    conv2d_33_weights                 8192/8192       weights/weights           const int8_t    ss8/ch(64)               
197    conv2d_55_scratch1                43008/43008     activations/**default**   int8_t          sa8                      
198    conv2d_33_bias                    64/256          weights/weights           const int32_t   ss32/ch(64)              
199    conv2d_35_weights                 16384/16384     weights/weights           const int8_t    ss8/ch(256)              
200    conv2d_57_scratch0                2304/2304       activations/**default**   int8_t          s8                       
201    conv2d_35_bias                    256/1024        weights/weights           const int32_t   ss32/ch(256)             
202    conv2d_35_alpha                   256/256         weights/weights           const int8_t    ss8                      
203    conv2d_59_scratch0                3072/3072       activations/**default**   int8_t          s8                       
204    conv2d_38_weights                 2304/2304       weights/weights           const int8_t    ss8/ch(256)              
205    conv2d_59_scratch1                43008/43008     activations/**default**   int8_t          sa8                      
206    conv2d_38_bias                    256/1024        weights/weights           const int32_t   ss32/ch(256)             
207    conv2d_38_alpha                   256/256         weights/weights           const int8_t    ss8                      
208    conv2d_61_scratch0                9473/9473       activations/**default**   int8_t          s8                       
209    conv2d_40_weights                 32768/32768     weights/weights           const int8_t    ss8/ch(128)              
210    conv2d_61_scratch1                43008/43008     activations/**default**   int8_t          sa8                      
211    conv2d_40_bias                    128/512         weights/weights           const int32_t   ss32/ch(128)             
212    conv2d_41_weights                 32768/32768     weights/weights           const int8_t    ss8/ch(256)              
213    conv2d_63_scratch0                2304/2304       activations/**default**   int8_t          s8                       
214    conv2d_41_bias                    256/1024        weights/weights           const int32_t   ss32/ch(256)             
215    conv2d_41_alpha                   256/256         weights/weights           const int8_t    ss8                      
216    conv2d_65_scratch0                3072/3072       activations/**default**   int8_t          s8                       
217    conv2d_43_weights                 2304/2304       weights/weights           const int8_t    ss8/ch(256)              
218    conv2d_43_bias                    256/1024        weights/weights           const int32_t   ss32/ch(256)             
219    conv2d_65_scratch1                43008/43008     activations/**default**   int8_t          sa8                      
220    conv2d_43_alpha                   256/256         weights/weights           const int8_t    ss8                      
221    conv2d_45_weights                 32768/32768     weights/weights           const int8_t    ss8/ch(128)              
222    conv2d_67_scratch0                9473/9473       activations/**default**   int8_t          s8                       
223    conv2d_45_bias                    128/512         weights/weights           const int32_t   ss32/ch(128)             
224    conv2d_67_scratch1                43008/43008     activations/**default**   int8_t          sa8                      
225    conv2d_47_weights                 32768/32768     weights/weights           const int8_t    ss8/ch(256)              
226    conv2d_47_bias                    256/1024        weights/weights           const int32_t   ss32/ch(256)             
227    conv2d_69_scratch0                2304/2304       activations/**default**   int8_t          s8                       
228    conv2d_47_alpha                   256/256         weights/weights           const int8_t    ss8                      
229    conv2d_49_weights                 2304/2304       weights/weights           const int8_t    ss8/ch(256)              
230    conv2d_71_scratch0                3072/3072       activations/**default**   int8_t          s8                       
231    conv2d_49_bias                    256/1024        weights/weights           const int32_t   ss32/ch(256)             
232    conv2d_71_scratch1                43008/43008     activations/**default**   int8_t          sa8                      
233    conv2d_49_alpha                   256/256         weights/weights           const int8_t    ss8                      
234    conv2d_51_weights                 32768/32768     weights/weights           const int8_t    ss8/ch(128)              
235    conv2d_73_scratch0                9473/9473       activations/**default**   int8_t          s8                       
236    conv2d_51_bias                    128/512         weights/weights           const int32_t   ss32/ch(128)             
237    conv2d_53_weights                 32768/32768     weights/weights           const int8_t    ss8/ch(256)              
238    conv2d_73_scratch1                43008/43008     activations/**default**   int8_t          sa8                      
239    conv2d_53_bias                    256/1024        weights/weights           const int32_t   ss32/ch(256)             
240    conv2d_53_alpha                   256/256         weights/weights           const int8_t    ss8                      
241    conv2d_75_scratch0                2304/2304       activations/**default**   int8_t          s8                       
242    conv2d_55_weights                 2304/2304       weights/weights           const int8_t    ss8/ch(256)              
243    conv2d_55_bias                    256/1024        weights/weights           const int32_t   ss32/ch(256)             
244    conv2d_77_scratch0                5632/5632       activations/**default**   int8_t          s8                       
245    conv2d_55_alpha                   256/256         weights/weights           const int8_t    ss8                      
246    conv2d_77_scratch1                86016/86016     activations/**default**   int8_t          sa8                      
247    conv2d_57_weights                 32768/32768     weights/weights           const int8_t    ss8/ch(128)              
248    conv2d_57_bias                    128/512         weights/weights           const int32_t   ss32/ch(128)             
249    conv2d_80_scratch0                18945/18945     activations/**default**   int8_t          s8                       
250    conv2d_59_weights                 32768/32768     weights/weights           const int8_t    ss8/ch(256)              
251    conv2d_80_scratch1                21504/21504     activations/**default**   int8_t          sa8                      
252    conv2d_59_bias                    256/1024        weights/weights           const int32_t   ss32/ch(256)             
253    conv2d_59_alpha                   256/256         weights/weights           const int8_t    ss8                      
254    conv2d_82_scratch0                3328/3328       activations/**default**   int8_t          s8                       
255    conv2d_61_weights                 2304/2304       weights/weights           const int8_t    ss8/ch(256)              
256    conv2d_61_bias                    256/1024        weights/weights           const int32_t   ss32/ch(256)             
257    conv2d_83_scratch0                3072/3072       activations/**default**   int8_t          s8                       
258    conv2d_61_alpha                   256/256         weights/weights           const int8_t    ss8                      
259    conv2d_63_weights                 32768/32768     weights/weights           const int8_t    ss8/ch(128)              
260    conv2d_83_scratch1                10752/10752     activations/**default**   int8_t          sa8                      
261    conv2d_63_bias                    128/512         weights/weights           const int32_t   ss32/ch(128)             
262    conv2d_65_weights                 32768/32768     weights/weights           const int8_t    ss8/ch(256)              
263    conv2d_85_scratch0                9473/9473       activations/**default**   int8_t          s8                       
264    conv2d_65_bias                    256/1024        weights/weights           const int32_t   ss32/ch(256)             
265    conv2d_85_scratch1                10752/10752     activations/**default**   int8_t          sa8                      
266    conv2d_65_alpha                   256/256         weights/weights           const int8_t    ss8                      
267    conv2d_67_weights                 2304/2304       weights/weights           const int8_t    ss8/ch(256)              
268    conv2d_87_scratch0                2304/2304       activations/**default**   int8_t          s8                       
269    conv2d_67_bias                    256/1024        weights/weights           const int32_t   ss32/ch(256)             
270    conv2d_67_alpha                   256/256         weights/weights           const int8_t    ss8                      
271    conv2d_89_scratch0                3072/3072       activations/**default**   int8_t          s8                       
272    conv2d_69_weights                 32768/32768     weights/weights           const int8_t    ss8/ch(128)              
273    conv2d_89_scratch1                10752/10752     activations/**default**   int8_t          sa8                      
274    conv2d_69_bias                    128/512         weights/weights           const int32_t   ss32/ch(128)             
275    conv2d_71_weights                 32768/32768     weights/weights           const int8_t    ss8/ch(256)              
276    conv2d_91_scratch0                9473/9473       activations/**default**   int8_t          s8                       
277    conv2d_71_bias                    256/1024        weights/weights           const int32_t   ss32/ch(256)             
278    conv2d_71_alpha                   256/256         weights/weights           const int8_t    ss8                      
279    conv2d_91_scratch1                10752/10752     activations/**default**   int8_t          sa8                      
280    conv2d_73_weights                 2304/2304       weights/weights           const int8_t    ss8/ch(256)              
281    conv2d_73_bias                    256/1024        weights/weights           const int32_t   ss32/ch(256)             
282    conv2d_93_scratch0                2304/2304       activations/**default**   int8_t          s8                       
283    conv2d_73_alpha                   256/256         weights/weights           const int8_t    ss8                      
284    conv2d_75_weights                 32768/32768     weights/weights           const int8_t    ss8/ch(128)              
285    conv2d_95_scratch0                5632/5632       activations/**default**   int8_t          s8                       
286    conv2d_75_bias                    128/512         weights/weights           const int32_t   ss32/ch(128)             
287    conv2d_95_scratch1                21504/21504     activations/**default**   int8_t          sa8                      
288    conv2d_77_weights                 65536/65536     weights/weights           const int8_t    ss8/ch(512)              
289    conv2d_77_bias                    512/2048        weights/weights           const int32_t   ss32/ch(512)             
290    conv2d_97_scratch0                69633/69633     activations/**default**   int8_t          s8                       
291    conv2d_77_alpha                   512/512         weights/weights           const int8_t    ss8                      
292    conv2d_80_weights                 4608/4608       weights/weights           const int8_t    ss8/ch(512)              
293    conv2d_98_scratch0                3328/3328       activations/**default**   int8_t          s8                       
294    conv2d_80_bias                    512/2048        weights/weights           const int32_t   ss32/ch(512)             
295    conv2d_80_alpha                   512/512         weights/weights           const int8_t    ss8                      
------ --------------------------------- --------------- ------------------------- --------------- -------------- --------- 

C-Layers (79)
------ ---------------------- ---- ---------------------- ---------- ------- ------------------------------------ --------------------- 
c_id   name (*_layer)         id   layer_type             macc       rom     tensors                              shape (array id)      
------ ---------------------- ---- ---------------------- ---------- ------- ------------------------------------ --------------------- 
0      pad_0                  0    pad                    0          0       I: serving_default_input_30_output   (1,112,96,3) (10)     
                                                                             O: pad_0_output                      (1,114,98,3) (11)     
------ ---------------------- ---- ---------------------- ---------- ------- ------------------------------------ --------------------- 
1      conv2d_1               2    conv2d                 4988992    2048    I: pad_0_output                      (1,114,98,3) (11)     
                                                                             S: conv2d_1_scratch0                                       
                                                                             S: conv2d_1_scratch1                                       
                                                                             W: conv2d_1_weights                  (3,3,3,64) (127)      
                                                                             W: conv2d_1_bias                     (64,) (129)           
                                                                             W: conv2d_1_alpha                    (1,1,64) (130)        
                                                                             O: conv2d_1_output                   (1,56,48,64) (13)     
------ ---------------------- ---- ---------------------- ---------- ------- ------------------------------------ --------------------- 
2      conv2d_3_pad_before    4    pad                    0          0       I: conv2d_1_output                   (1,56,48,64) (13)     
                                                                             O: conv2d_3_pad_before_output        (1,58,50,64) (15)     
------ ---------------------- ---- ---------------------- ---------- ------- ------------------------------------ --------------------- 
3      conv2d_3               4    conv2d                 1892416    896     I: conv2d_3_pad_before_output        (1,58,50,64) (15)     
                                                                             S: conv2d_3_scratch0                                       
                                                                             S: conv2d_3_scratch1                                       
                                                                             W: conv2d_3_weights                  (64,3,3,1) (132)      
                                                                             W: conv2d_3_bias                     (64,) (133)           
                                                                             W: conv2d_3_alpha                    (1,1,64) (135)        
                                                                             O: conv2d_3_output                   (1,56,48,64) (16)     
------ ---------------------- ---- ---------------------- ---------- ------- ------------------------------------ --------------------- 
4      conv2d_5               6    conv2d                 22708352   8832    I: conv2d_3_output                   (1,56,48,64) (16)     
                                                                             S: conv2d_5_scratch0                                       
                                                                             S: conv2d_5_scratch1                                       
                                                                             W: conv2d_5_weights                  (64,1,1,128) (136)    
                                                                             W: conv2d_5_bias                     (128,) (138)          
                                                                             W: conv2d_5_alpha                    (1,1,128) (139)       
                                                                             O: conv2d_5_output                   (1,56,48,128) (18)    
------ ---------------------- ---- ---------------------- ---------- ------- ------------------------------------ --------------------- 
5      conv2d_8_pad_before    9    pad                    0          0       I: conv2d_5_output                   (1,56,48,128) (18)    
                                                                             O: conv2d_8_pad_before_output        (1,58,50,128) (20)    
------ ---------------------- ---- ---------------------- ---------- ------- ------------------------------------ --------------------- 
6      conv2d_8               7    conv2d                 946304     1792    I: conv2d_8_pad_before_output        (1,58,50,128) (20)    
                                                                             S: conv2d_8_scratch0                                       
                                                                             S: conv2d_8_scratch1                                       
                                                                             W: conv2d_8_weights                  (128,3,3,1) (141)     
                                                                             W: conv2d_8_bias                     (128,) (143)          
                                                                             W: conv2d_8_alpha                    (1,1,128) (144)       
                                                                             O: conv2d_8_output                   (1,28,24,128) (21)    
------ ---------------------- ---- ---------------------- ---------- ------- ------------------------------------ --------------------- 
7      conv2d_10              10   conv2d                 5505088    8448    I: conv2d_8_output                   (1,28,24,128) (21)    
                                                                             S: conv2d_10_scratch0                                      
                                                                             W: conv2d_10_weights                 (128,1,1,64) (146)    
                                                                             W: conv2d_10_bias                    (64,) (147)           
                                                                             O: conv2d_10_output                  (1,28,24,64) (23)     
------ ---------------------- ---- ---------------------- ---------- ------- ------------------------------------ --------------------- 
8      conv2d_11              12   conv2d                 5677184    8832    I: conv2d_10_output                  (1,28,24,64) (23)     
                                                                             S: conv2d_11_scratch0                                      
                                                                             S: conv2d_11_scratch1                                      
                                                                             W: conv2d_11_weights                 (64,1,1,128) (149)    
                                                                             W: conv2d_11_bias                    (128,) (151)          
                                                                             W: conv2d_11_alpha                   (1,1,128) (152)       
                                                                             O: conv2d_11_output                  (1,28,24,128) (25)    
------ ---------------------- ---- ---------------------- ---------- ------- ------------------------------------ --------------------- 
9      conv2d_13_pad_before   14   pad                    0          0       I: conv2d_11_output                  (1,28,24,128) (25)    
                                                                             O: conv2d_13_pad_before_output       (1,30,26,128) (26)    
------ ---------------------- ---- ---------------------- ---------- ------- ------------------------------------ --------------------- 
10     conv2d_13              14   conv2d                 946304     1792    I: conv2d_13_pad_before_output       (1,30,26,128) (26)    
                                                                             S: conv2d_13_scratch0                                      
                                                                             S: conv2d_13_scratch1                                      
                                                                             W: conv2d_13_weights                 (128,3,3,1) (154)     
                                                                             W: conv2d_13_bias                    (128,) (155)          
                                                                             W: conv2d_13_alpha                   (1,1,128) (157)       
                                                                             O: conv2d_13_output                  (1,28,24,128) (28)    
------ ---------------------- ---- ---------------------- ---------- ------- ------------------------------------ --------------------- 
11     conv2d_15              15   conv2d                 5505088    8448    I: conv2d_13_output                  (1,28,24,128) (28)    
                                                                             S: conv2d_15_scratch0                                      
                                                                             W: conv2d_15_weights                 (128,1,1,64) (158)    
                                                                             W: conv2d_15_bias                    (64,) (160)           
                                                                             O: conv2d_15_output                  (1,28,24,64) (30)     
------ ---------------------- ---- ---------------------- ---------- ------- ------------------------------------ --------------------- 
12     eltwise_16             16   eltwise_integer/sum    43008      0       I: conv2d_10_output                  (1,28,24,64) (23)     
                                                                             I: conv2d_15_output                  (1,28,24,64) (30)     
                                                                             O: eltwise_16_output                 (1,28,24,64) (31)     
------ ---------------------- ---- ---------------------- ---------- ------- ------------------------------------ --------------------- 
13     conv2d_17              18   conv2d                 5677184    8832    I: eltwise_16_output                 (1,28,24,64) (31)     
                                                                             S: conv2d_17_scratch0                                      
                                                                             S: conv2d_17_scratch1                                      
                                                                             W: conv2d_17_weights                 (64,1,1,128) (161)    
                                                                             W: conv2d_17_bias                    (128,) (163)          
                                                                             W: conv2d_17_alpha                   (1,1,128) (165)       
                                                                             O: conv2d_17_output                  (1,28,24,128) (33)    
------ ---------------------- ---- ---------------------- ---------- ------- ------------------------------------ --------------------- 
14     conv2d_19_pad_before   20   pad                    0          0       I: conv2d_17_output                  (1,28,24,128) (33)    
                                                                             O: conv2d_19_pad_before_output       (1,30,26,128) (35)    
------ ---------------------- ---- ---------------------- ---------- ------- ------------------------------------ --------------------- 
15     conv2d_19              20   conv2d                 946304     1792    I: conv2d_19_pad_before_output       (1,30,26,128) (35)    
                                                                             S: conv2d_19_scratch0                                      
                                                                             S: conv2d_19_scratch1                                      
                                                                             W: conv2d_19_weights                 (128,3,3,1) (166)     
                                                                             W: conv2d_19_bias                    (128,) (168)          
                                                                             W: conv2d_19_alpha                   (1,1,128) (170)       
                                                                             O: conv2d_19_output                  (1,28,24,128) (36)    
------ ---------------------- ---- ---------------------- ---------- ------- ------------------------------------ --------------------- 
16     conv2d_21              21   conv2d                 5505088    8448    I: conv2d_19_output                  (1,28,24,128) (36)    
                                                                             S: conv2d_21_scratch0                                      
                                                                             W: conv2d_21_weights                 (128,1,1,64) (171)    
                                                                             W: conv2d_21_bias                    (64,) (173)           
                                                                             O: conv2d_21_output                  (1,28,24,64) (38)     
------ ---------------------- ---- ---------------------- ---------- ------- ------------------------------------ --------------------- 
17     eltwise_22             22   eltwise_integer/sum    43008      0       I: eltwise_16_output                 (1,28,24,64) (31)     
                                                                             I: conv2d_21_output                  (1,28,24,64) (38)     
                                                                             O: eltwise_22_output                 (1,28,24,64) (40)     
------ ---------------------- ---- ---------------------- ---------- ------- ------------------------------------ --------------------- 
18     conv2d_23              24   conv2d                 5677184    8832    I: eltwise_22_output                 (1,28,24,64) (40)     
                                                                             S: conv2d_23_scratch0                                      
                                                                             S: conv2d_23_scratch1                                      
                                                                             W: conv2d_23_weights                 (64,1,1,128) (174)    
                                                                             W: conv2d_23_bias                    (128,) (176)          
                                                                             W: conv2d_23_alpha                   (1,1,128) (177)       
                                                                             O: conv2d_23_output                  (1,28,24,128) (41)    
------ ---------------------- ---- ---------------------- ---------- ------- ------------------------------------ --------------------- 
19     conv2d_25_pad_before   26   pad                    0          0       I: conv2d_23_output                  (1,28,24,128) (41)    
                                                                             O: conv2d_25_pad_before_output       (1,30,26,128) (43)    
------ ---------------------- ---- ---------------------- ---------- ------- ------------------------------------ --------------------- 
20     conv2d_25              26   conv2d                 946304     1792    I: conv2d_25_pad_before_output       (1,30,26,128) (43)    
                                                                             S: conv2d_25_scratch0                                      
                                                                             S: conv2d_25_scratch1                                      
                                                                             W: conv2d_25_weights                 (128,3,3,1) (179)     
                                                                             W: conv2d_25_bias                    (128,) (180)          
                                                                             W: conv2d_25_alpha                   (1,1,128) (182)       
                                                                             O: conv2d_25_output                  (1,28,24,128) (45)    
------ ---------------------- ---- ---------------------- ---------- ------- ------------------------------------ --------------------- 
21     conv2d_27              27   conv2d                 5505088    8448    I: conv2d_25_output                  (1,28,24,128) (45)    
                                                                             S: conv2d_27_scratch0                                      
                                                                             W: conv2d_27_weights                 (128,1,1,64) (184)    
                                                                             W: conv2d_27_bias                    (64,) (185)           
                                                                             O: conv2d_27_output                  (1,28,24,64) (46)     
------ ---------------------- ---- ---------------------- ---------- ------- ------------------------------------ --------------------- 
22     eltwise_28             28   eltwise_integer/sum    43008      0       I: eltwise_22_output                 (1,28,24,64) (40)     
                                                                             I: conv2d_27_output                  (1,28,24,64) (46)     
                                                                             O: eltwise_28_output                 (1,28,24,64) (48)     
------ ---------------------- ---- ---------------------- ---------- ------- ------------------------------------ --------------------- 
23     conv2d_29              30   conv2d                 5677184    8832    I: eltwise_28_output                 (1,28,24,64) (48)     
                                                                             S: conv2d_29_scratch0                                      
                                                                             S: conv2d_29_scratch1                                      
                                                                             W: conv2d_29_weights                 (64,1,1,128) (187)    
                                                                             W: conv2d_29_bias                    (128,) (188)          
                                                                             W: conv2d_29_alpha                   (1,1,128) (190)       
                                                                             O: conv2d_29_output                  (1,28,24,128) (49)    
------ ---------------------- ---- ---------------------- ---------- ------- ------------------------------------ --------------------- 
24     conv2d_31_pad_before   32   pad                    0          0       I: conv2d_29_output                  (1,28,24,128) (49)    
                                                                             O: conv2d_31_pad_before_output       (1,30,26,128) (50)    
------ ---------------------- ---- ---------------------- ---------- ------- ------------------------------------ --------------------- 
25     conv2d_31              32   conv2d                 946304     1792    I: conv2d_31_pad_before_output       (1,30,26,128) (50)    
                                                                             S: conv2d_31_scratch0                                      
                                                                             S: conv2d_31_scratch1                                      
                                                                             W: conv2d_31_weights                 (128,3,3,1) (192)     
                                                                             W: conv2d_31_bias                    (128,) (193)          
                                                                             W: conv2d_31_alpha                   (1,1,128) (195)       
                                                                             O: conv2d_31_output                  (1,28,24,128) (52)    
------ ---------------------- ---- ---------------------- ---------- ------- ------------------------------------ --------------------- 
26     conv2d_33              33   conv2d                 5505088    8448    I: conv2d_31_output                  (1,28,24,128) (52)    
                                                                             S: conv2d_33_scratch0                                      
                                                                             W: conv2d_33_weights                 (128,1,1,64) (196)    
                                                                             W: conv2d_33_bias                    (64,) (198)           
                                                                             O: conv2d_33_output                  (1,28,24,64) (53)     
------ ---------------------- ---- ---------------------- ---------- ------- ------------------------------------ --------------------- 
27     eltwise_34             34   eltwise_integer/sum    43008      0       I: eltwise_28_output                 (1,28,24,64) (48)     
                                                                             I: conv2d_33_output                  (1,28,24,64) (53)     
                                                                             O: eltwise_34_output                 (1,28,24,64) (55)     
------ ---------------------- ---- ---------------------- ---------- ------- ------------------------------------ --------------------- 
28     conv2d_35              36   conv2d                 11354368   17664   I: eltwise_34_output                 (1,28,24,64) (55)     
                                                                             S: conv2d_35_scratch0                                      
                                                                             S: conv2d_35_scratch1                                      
                                                                             W: conv2d_35_weights                 (64,1,1,256) (199)    
                                                                             W: conv2d_35_bias                    (256,) (201)          
                                                                             W: conv2d_35_alpha                   (1,1,256) (202)       
                                                                             O: conv2d_35_output                  (1,28,24,256) (56)    
------ ---------------------- ---- ---------------------- ---------- ------- ------------------------------------ --------------------- 
29     conv2d_38_pad_before   39   pad                    0          0       I: conv2d_35_output                  (1,28,24,256) (56)    
                                                                             O: conv2d_38_pad_before_output       (1,30,26,256) (57)    
------ ---------------------- ---- ---------------------- ---------- ------- ------------------------------------ --------------------- 
30     conv2d_38              37   conv2d                 473344     3584    I: conv2d_38_pad_before_output       (1,30,26,256) (57)    
                                                                             S: conv2d_38_scratch0                                      
                                                                             S: conv2d_38_scratch1                                      
                                                                             W: conv2d_38_weights                 (256,3,3,1) (204)     
                                                                             W: conv2d_38_bias                    (256,) (206)          
                                                                             W: conv2d_38_alpha                   (1,1,256) (207)       
                                                                             O: conv2d_38_output                  (1,14,12,256) (59)    
------ ---------------------- ---- ---------------------- ---------- ------- ------------------------------------ --------------------- 
31     conv2d_40              40   conv2d                 5505152    33280   I: conv2d_38_output                  (1,14,12,256) (59)    
                                                                             S: conv2d_40_scratch0                                      
                                                                             W: conv2d_40_weights                 (256,1,1,128) (209)   
                                                                             W: conv2d_40_bias                    (128,) (211)          
                                                                             O: conv2d_40_output                  (1,14,12,128) (60)    
------ ---------------------- ---- ---------------------- ---------- ------- ------------------------------------ --------------------- 
32     conv2d_41              42   conv2d                 5591296    34048   I: conv2d_40_output                  (1,14,12,128) (60)    
                                                                             S: conv2d_41_scratch0                                      
                                                                             S: conv2d_41_scratch1                                      
                                                                             W: conv2d_41_weights                 (128,1,1,256) (212)   
                                                                             W: conv2d_41_bias                    (256,) (214)          
                                                                             W: conv2d_41_alpha                   (1,1,256) (215)       
                                                                             O: conv2d_41_output                  (1,14,12,256) (62)    
------ ---------------------- ---- ---------------------- ---------- ------- ------------------------------------ --------------------- 
33     conv2d_43_pad_before   44   pad                    0          0       I: conv2d_41_output                  (1,14,12,256) (62)    
                                                                             O: conv2d_43_pad_before_output       (1,16,14,256) (63)    
------ ---------------------- ---- ---------------------- ---------- ------- ------------------------------------ --------------------- 
34     conv2d_43              44   conv2d                 473344     3584    I: conv2d_43_pad_before_output       (1,16,14,256) (63)    
                                                                             S: conv2d_43_scratch0                                      
                                                                             S: conv2d_43_scratch1                                      
                                                                             W: conv2d_43_weights                 (256,3,3,1) (217)     
                                                                             W: conv2d_43_bias                    (256,) (218)          
                                                                             W: conv2d_43_alpha                   (1,1,256) (220)       
                                                                             O: conv2d_43_output                  (1,14,12,256) (64)    
------ ---------------------- ---- ---------------------- ---------- ------- ------------------------------------ --------------------- 
35     conv2d_45              45   conv2d                 5505152    33280   I: conv2d_43_output                  (1,14,12,256) (64)    
                                                                             S: conv2d_45_scratch0                                      
                                                                             W: conv2d_45_weights                 (256,1,1,128) (221)   
                                                                             W: conv2d_45_bias                    (128,) (223)          
                                                                             O: conv2d_45_output                  (1,14,12,128) (66)    
------ ---------------------- ---- ---------------------- ---------- ------- ------------------------------------ --------------------- 
36     eltwise_46             46   eltwise_integer/sum    21504      0       I: conv2d_40_output                  (1,14,12,128) (60)    
                                                                             I: conv2d_45_output                  (1,14,12,128) (66)    
                                                                             O: eltwise_46_output                 (1,14,12,128) (67)    
------ ---------------------- ---- ---------------------- ---------- ------- ------------------------------------ --------------------- 
37     conv2d_47              48   conv2d                 5591296    34048   I: eltwise_46_output                 (1,14,12,128) (67)    
                                                                             S: conv2d_47_scratch0                                      
                                                                             S: conv2d_47_scratch1                                      
                                                                             W: conv2d_47_weights                 (128,1,1,256) (225)   
                                                                             W: conv2d_47_bias                    (256,) (226)          
                                                                             W: conv2d_47_alpha                   (1,1,256) (228)       
                                                                             O: conv2d_47_output                  (1,14,12,256) (69)    
------ ---------------------- ---- ---------------------- ---------- ------- ------------------------------------ --------------------- 
38     conv2d_49_pad_before   50   pad                    0          0       I: conv2d_47_output                  (1,14,12,256) (69)    
                                                                             O: conv2d_49_pad_before_output       (1,16,14,256) (70)    
------ ---------------------- ---- ---------------------- ---------- ------- ------------------------------------ --------------------- 
39     conv2d_49              50   conv2d                 473344     3584    I: conv2d_49_pad_before_output       (1,16,14,256) (70)    
                                                                             S: conv2d_49_scratch0                                      
                                                                             S: conv2d_49_scratch1                                      
                                                                             W: conv2d_49_weights                 (256,3,3,1) (229)     
                                                                             W: conv2d_49_bias                    (256,) (231)          
                                                                             W: conv2d_49_alpha                   (1,1,256) (233)       
                                                                             O: conv2d_49_output                  (1,14,12,256) (71)    
------ ---------------------- ---- ---------------------- ---------- ------- ------------------------------------ --------------------- 
40     conv2d_51              51   conv2d                 5505152    33280   I: conv2d_49_output                  (1,14,12,256) (71)    
                                                                             S: conv2d_51_scratch0                                      
                                                                             W: conv2d_51_weights                 (256,1,1,128) (234)   
                                                                             W: conv2d_51_bias                    (128,) (236)          
                                                                             O: conv2d_51_output                  (1,14,12,128) (73)    
------ ---------------------- ---- ---------------------- ---------- ------- ------------------------------------ --------------------- 
41     eltwise_52             52   eltwise_integer/sum    21504      0       I: eltwise_46_output                 (1,14,12,128) (67)    
                                                                             I: conv2d_51_output                  (1,14,12,128) (73)    
                                                                             O: eltwise_52_output                 (1,14,12,128) (74)    
------ ---------------------- ---- ---------------------- ---------- ------- ------------------------------------ --------------------- 
42     conv2d_53              54   conv2d                 5591296    34048   I: eltwise_52_output                 (1,14,12,128) (74)    
                                                                             S: conv2d_53_scratch0                                      
                                                                             S: conv2d_53_scratch1                                      
                                                                             W: conv2d_53_weights                 (128,1,1,256) (237)   
                                                                             W: conv2d_53_bias                    (256,) (239)          
                                                                             W: conv2d_53_alpha                   (1,1,256) (240)       
                                                                             O: conv2d_53_output                  (1,14,12,256) (76)    
------ ---------------------- ---- ---------------------- ---------- ------- ------------------------------------ --------------------- 
43     conv2d_55_pad_before   56   pad                    0          0       I: conv2d_53_output                  (1,14,12,256) (76)    
                                                                             O: conv2d_55_pad_before_output       (1,16,14,256) (77)    
------ ---------------------- ---- ---------------------- ---------- ------- ------------------------------------ --------------------- 
44     conv2d_55              56   conv2d                 473344     3584    I: conv2d_55_pad_before_output       (1,16,14,256) (77)    
                                                                             S: conv2d_55_scratch0                                      
                                                                             S: conv2d_55_scratch1                                      
                                                                             W: conv2d_55_weights                 (256,3,3,1) (242)     
                                                                             W: conv2d_55_bias                    (256,) (243)          
                                                                             W: conv2d_55_alpha                   (1,1,256) (245)       
                                                                             O: conv2d_55_output                  (1,14,12,256) (78)    
------ ---------------------- ---- ---------------------- ---------- ------- ------------------------------------ --------------------- 
45     conv2d_57              57   conv2d                 5505152    33280   I: conv2d_55_output                  (1,14,12,256) (78)    
                                                                             S: conv2d_57_scratch0                                      
                                                                             W: conv2d_57_weights                 (256,1,1,128) (247)   
                                                                             W: conv2d_57_bias                    (128,) (248)          
                                                                             O: conv2d_57_output                  (1,14,12,128) (80)    
------ ---------------------- ---- ---------------------- ---------- ------- ------------------------------------ --------------------- 
46     eltwise_58             58   eltwise_integer/sum    21504      0       I: eltwise_52_output                 (1,14,12,128) (74)    
                                                                             I: conv2d_57_output                  (1,14,12,128) (80)    
                                                                             O: eltwise_58_output                 (1,14,12,128) (81)    
------ ---------------------- ---- ---------------------- ---------- ------- ------------------------------------ --------------------- 
47     conv2d_59              60   conv2d                 5591296    34048   I: eltwise_58_output                 (1,14,12,128) (81)    
                                                                             S: conv2d_59_scratch0                                      
                                                                             S: conv2d_59_scratch1                                      
                                                                             W: conv2d_59_weights                 (128,1,1,256) (250)   
                                                                             W: conv2d_59_bias                    (256,) (252)          
                                                                             W: conv2d_59_alpha                   (1,1,256) (253)       
                                                                             O: conv2d_59_output                  (1,14,12,256) (82)    
------ ---------------------- ---- ---------------------- ---------- ------- ------------------------------------ --------------------- 
48     conv2d_61_pad_before   62   pad                    0          0       I: conv2d_59_output                  (1,14,12,256) (82)    
                                                                             O: conv2d_61_pad_before_output       (1,16,14,256) (84)    
------ ---------------------- ---- ---------------------- ---------- ------- ------------------------------------ --------------------- 
49     conv2d_61              62   conv2d                 473344     3584    I: conv2d_61_pad_before_output       (1,16,14,256) (84)    
                                                                             S: conv2d_61_scratch0                                      
                                                                             S: conv2d_61_scratch1                                      
                                                                             W: conv2d_61_weights                 (256,3,3,1) (255)     
                                                                             W: conv2d_61_bias                    (256,) (256)          
                                                                             W: conv2d_61_alpha                   (1,1,256) (258)       
                                                                             O: conv2d_61_output                  (1,14,12,256) (85)    
------ ---------------------- ---- ---------------------- ---------- ------- ------------------------------------ --------------------- 
50     conv2d_63              63   conv2d                 5505152    33280   I: conv2d_61_output                  (1,14,12,256) (85)    
                                                                             S: conv2d_63_scratch0                                      
                                                                             W: conv2d_63_weights                 (256,1,1,128) (259)   
                                                                             W: conv2d_63_bias                    (128,) (261)          
                                                                             O: conv2d_63_output                  (1,14,12,128) (87)    
------ ---------------------- ---- ---------------------- ---------- ------- ------------------------------------ --------------------- 
51     eltwise_64             64   eltwise_integer/sum    21504      0       I: eltwise_58_output                 (1,14,12,128) (81)    
                                                                             I: conv2d_63_output                  (1,14,12,128) (87)    
                                                                             O: eltwise_64_output                 (1,14,12,128) (88)    
------ ---------------------- ---- ---------------------- ---------- ------- ------------------------------------ --------------------- 
52     conv2d_65              66   conv2d                 5591296    34048   I: eltwise_64_output                 (1,14,12,128) (88)    
                                                                             S: conv2d_65_scratch0                                      
                                                                             S: conv2d_65_scratch1                                      
                                                                             W: conv2d_65_weights                 (128,1,1,256) (262)   
                                                                             W: conv2d_65_bias                    (256,) (264)          
                                                                             W: conv2d_65_alpha                   (1,1,256) (266)       
                                                                             O: conv2d_65_output                  (1,14,12,256) (89)    
------ ---------------------- ---- ---------------------- ---------- ------- ------------------------------------ --------------------- 
53     conv2d_67_pad_before   68   pad                    0          0       I: conv2d_65_output                  (1,14,12,256) (89)    
                                                                             O: conv2d_67_pad_before_output       (1,16,14,256) (91)    
------ ---------------------- ---- ---------------------- ---------- ------- ------------------------------------ --------------------- 
54     conv2d_67              68   conv2d                 473344     3584    I: conv2d_67_pad_before_output       (1,16,14,256) (91)    
                                                                             S: conv2d_67_scratch0                                      
                                                                             S: conv2d_67_scratch1                                      
                                                                             W: conv2d_67_weights                 (256,3,3,1) (267)     
                                                                             W: conv2d_67_bias                    (256,) (269)          
                                                                             W: conv2d_67_alpha                   (1,1,256) (270)       
                                                                             O: conv2d_67_output                  (1,14,12,256) (92)    
------ ---------------------- ---- ---------------------- ---------- ------- ------------------------------------ --------------------- 
55     conv2d_69              69   conv2d                 5505152    33280   I: conv2d_67_output                  (1,14,12,256) (92)    
                                                                             S: conv2d_69_scratch0                                      
                                                                             W: conv2d_69_weights                 (256,1,1,128) (272)   
                                                                             W: conv2d_69_bias                    (128,) (274)          
                                                                             O: conv2d_69_output                  (1,14,12,128) (94)    
------ ---------------------- ---- ---------------------- ---------- ------- ------------------------------------ --------------------- 
56     eltwise_70             70   eltwise_integer/sum    21504      0       I: eltwise_64_output                 (1,14,12,128) (88)    
                                                                             I: conv2d_69_output                  (1,14,12,128) (94)    
                                                                             O: eltwise_70_output                 (1,14,12,128) (95)    
------ ---------------------- ---- ---------------------- ---------- ------- ------------------------------------ --------------------- 
57     conv2d_71              72   conv2d                 5591296    34048   I: eltwise_70_output                 (1,14,12,128) (95)    
                                                                             S: conv2d_71_scratch0                                      
                                                                             S: conv2d_71_scratch1                                      
                                                                             W: conv2d_71_weights                 (128,1,1,256) (275)   
                                                                             W: conv2d_71_bias                    (256,) (277)          
                                                                             W: conv2d_71_alpha                   (1,1,256) (278)       
                                                                             O: conv2d_71_output                  (1,14,12,256) (96)    
------ ---------------------- ---- ---------------------- ---------- ------- ------------------------------------ --------------------- 
58     conv2d_73_pad_before   74   pad                    0          0       I: conv2d_71_output                  (1,14,12,256) (96)    
                                                                             O: conv2d_73_pad_before_output       (1,16,14,256) (98)    
------ ---------------------- ---- ---------------------- ---------- ------- ------------------------------------ --------------------- 
59     conv2d_73              74   conv2d                 473344     3584    I: conv2d_73_pad_before_output       (1,16,14,256) (98)    
                                                                             S: conv2d_73_scratch0                                      
                                                                             S: conv2d_73_scratch1                                      
                                                                             W: conv2d_73_weights                 (256,3,3,1) (280)     
                                                                             W: conv2d_73_bias                    (256,) (281)          
                                                                             W: conv2d_73_alpha                   (1,1,256) (283)       
                                                                             O: conv2d_73_output                  (1,14,12,256) (99)    
------ ---------------------- ---- ---------------------- ---------- ------- ------------------------------------ --------------------- 
60     conv2d_75              75   conv2d                 5505152    33280   I: conv2d_73_output                  (1,14,12,256) (99)    
                                                                             S: conv2d_75_scratch0                                      
                                                                             W: conv2d_75_weights                 (256,1,1,128) (284)   
                                                                             W: conv2d_75_bias                    (128,) (286)          
                                                                             O: conv2d_75_output                  (1,14,12,128) (100)   
------ ---------------------- ---- ---------------------- ---------- ------- ------------------------------------ --------------------- 
61     eltwise_76             76   eltwise_integer/sum    21504      0       I: eltwise_70_output                 (1,14,12,128) (95)    
                                                                             I: conv2d_75_output                  (1,14,12,128) (100)   
                                                                             O: eltwise_76_output                 (1,14,12,128) (102)   
------ ---------------------- ---- ---------------------- ---------- ------- ------------------------------------ --------------------- 
62     conv2d_77              78   conv2d                 11182592   68096   I: eltwise_76_output                 (1,14,12,128) (102)   
                                                                             S: conv2d_77_scratch0                                      
                                                                             S: conv2d_77_scratch1                                      
                                                                             W: conv2d_77_weights                 (128,1,1,512) (288)   
                                                                             W: conv2d_77_bias                    (512,) (289)          
                                                                             W: conv2d_77_alpha                   (1,1,512) (291)       
                                                                             O: conv2d_77_output                  (1,14,12,512) (103)   
------ ---------------------- ---- ---------------------- ---------- ------- ------------------------------------ --------------------- 
63     conv2d_80_pad_before   81   pad                    0          0       I: conv2d_77_output                  (1,14,12,512) (103)   
                                                                             O: conv2d_80_pad_before_output       (1,16,14,512) (105)   
------ ---------------------- ---- ---------------------- ---------- ------- ------------------------------------ --------------------- 
64     conv2d_80              79   conv2d                 237056     7168    I: conv2d_80_pad_before_output       (1,16,14,512) (105)   
                                                                             S: conv2d_80_scratch0                                      
                                                                             S: conv2d_80_scratch1                                      
                                                                             W: conv2d_80_weights                 (512,3,3,1) (292)     
                                                                             W: conv2d_80_bias                    (512,) (294)          
                                                                             W: conv2d_80_alpha                   (1,1,512) (295)       
                                                                             O: conv2d_80_output                  (1,7,6,512) (106)     
------ ---------------------- ---- ---------------------- ---------- ------- ------------------------------------ --------------------- 
65     conv2d_82              82   conv2d                 2752640    66048   I: conv2d_80_output                  (1,7,6,512) (106)     
                                                                             S: conv2d_82_scratch0                                      
                                                                             W: conv2d_82_weights                 (512,1,1,128) (0)     
                                                                             W: conv2d_82_bias                    (128,) (1)            
                                                                             O: conv2d_82_output                  (1,7,6,128) (107)     
------ ---------------------- ---- ---------------------- ---------- ------- ------------------------------------ --------------------- 
66     conv2d_83              84   conv2d                 1398016    34048   I: conv2d_82_output                  (1,7,6,128) (107)     
                                                                             S: conv2d_83_scratch0                                      
                                                                             S: conv2d_83_scratch1                                      
                                                                             W: conv2d_83_weights                 (128,1,1,256) (2)     
                                                                             W: conv2d_83_bias                    (256,) (3)            
                                                                             W: conv2d_83_alpha                   (1,1,256) (4)         
                                                                             O: conv2d_83_output                  (1,7,6,256) (109)     
------ ---------------------- ---- ---------------------- ---------- ------- ------------------------------------ --------------------- 
67     conv2d_85_pad_before   86   pad                    0          0       I: conv2d_83_output                  (1,7,6,256) (109)     
                                                                             O: conv2d_85_pad_before_output       (1,9,8,256) (110)     
------ ---------------------- ---- ---------------------- ---------- ------- ------------------------------------ --------------------- 
68     conv2d_85              86   conv2d                 118528     3584    I: conv2d_85_pad_before_output       (1,9,8,256) (110)     
                                                                             S: conv2d_85_scratch0                                      
                                                                             S: conv2d_85_scratch1                                      
                                                                             W: conv2d_85_weights                 (256,3,3,1) (5)       
                                                                             W: conv2d_85_bias                    (256,) (6)            
                                                                             W: conv2d_85_alpha                   (1,1,256) (7)         
                                                                             O: conv2d_85_output                  (1,7,6,256) (112)     
------ ---------------------- ---- ---------------------- ---------- ------- ------------------------------------ --------------------- 
69     conv2d_87              87   conv2d                 1376384    33280   I: conv2d_85_output                  (1,7,6,256) (112)     
                                                                             S: conv2d_87_scratch0                                      
                                                                             W: conv2d_87_weights                 (256,1,1,128) (8)     
                                                                             W: conv2d_87_bias                    (128,) (9)            
                                                                             O: conv2d_87_output                  (1,7,6,128) (113)     
------ ---------------------- ---- ---------------------- ---------- ------- ------------------------------------ --------------------- 
70     eltwise_88             88   eltwise_integer/sum    5376       0       I: conv2d_82_output                  (1,7,6,128) (107)     
                                                                             I: conv2d_87_output                  (1,7,6,128) (113)     
                                                                             O: eltwise_88_output                 (1,7,6,128) (114)     
------ ---------------------- ---- ---------------------- ---------- ------- ------------------------------------ --------------------- 
71     conv2d_89              90   conv2d                 1398016    34048   I: eltwise_88_output                 (1,7,6,128) (114)     
                                                                             S: conv2d_89_scratch0                                      
                                                                             S: conv2d_89_scratch1                                      
                                                                             W: conv2d_89_weights                 (128,1,1,256) (12)    
                                                                             W: conv2d_89_bias                    (256,) (14)           
                                                                             W: conv2d_89_alpha                   (1,1,256) (17)        
                                                                             O: conv2d_89_output                  (1,7,6,256) (116)     
------ ---------------------- ---- ---------------------- ---------- ------- ------------------------------------ --------------------- 
72     conv2d_91_pad_before   92   pad                    0          0       I: conv2d_89_output                  (1,7,6,256) (116)     
                                                                             O: conv2d_91_pad_before_output       (1,9,8,256) (117)     
------ ---------------------- ---- ---------------------- ---------- ------- ------------------------------------ --------------------- 
73     conv2d_91              92   conv2d                 118528     3584    I: conv2d_91_pad_before_output       (1,9,8,256) (117)     
                                                                             S: conv2d_91_scratch0                                      
                                                                             S: conv2d_91_scratch1                                      
                                                                             W: conv2d_91_weights                 (256,3,3,1) (19)      
                                                                             W: conv2d_91_bias                    (256,) (22)           
                                                                             W: conv2d_91_alpha                   (1,1,256) (24)        
                                                                             O: conv2d_91_output                  (1,7,6,256) (118)     
------ ---------------------- ---- ---------------------- ---------- ------- ------------------------------------ --------------------- 
74     conv2d_93              93   conv2d                 1376384    33280   I: conv2d_91_output                  (1,7,6,256) (118)     
                                                                             S: conv2d_93_scratch0                                      
                                                                             W: conv2d_93_weights                 (256,1,1,128) (27)    
                                                                             W: conv2d_93_bias                    (128,) (29)           
                                                                             O: conv2d_93_output                  (1,7,6,128) (120)     
------ ---------------------- ---- ---------------------- ---------- ------- ------------------------------------ --------------------- 
75     eltwise_94             94   eltwise_integer/sum    5376       0       I: eltwise_88_output                 (1,7,6,128) (114)     
                                                                             I: conv2d_93_output                  (1,7,6,128) (120)     
                                                                             O: eltwise_94_output                 (1,7,6,128) (121)     
------ ---------------------- ---- ---------------------- ---------- ------- ------------------------------------ --------------------- 
76     conv2d_95              96   conv2d                 2796032    68096   I: eltwise_94_output                 (1,7,6,128) (121)     
                                                                             S: conv2d_95_scratch0                                      
                                                                             S: conv2d_95_scratch1                                      
                                                                             W: conv2d_95_weights                 (128,1,1,512) (32)    
                                                                             W: conv2d_95_bias                    (512,) (34)           
                                                                             W: conv2d_95_alpha                   (1,1,512) (37)        
                                                                             O: conv2d_95_output                  (1,7,6,512) (123)     
------ ---------------------- ---- ---------------------- ---------- ------- ------------------------------------ --------------------- 
77     conv2d_97              97   conv2d                 22016      23552   I: conv2d_95_output                  (1,7,6,512) (123)     
                                                                             S: conv2d_97_scratch0                                      
                                                                             W: conv2d_97_weights                 (512,7,6,1) (39)      
                                                                             W: conv2d_97_bias                    (512,) (42)           
                                                                             O: conv2d_97_output                  (1,1,1,512) (124)     
------ ---------------------- ---- ---------------------- ---------- ------- ------------------------------------ --------------------- 
78     conv2d_98              98   conv2d                 65664      66048   I: conv2d_97_output                  (1,1,1,512) (124)     
                                                                             S: conv2d_98_scratch0                                      
                                                                             W: conv2d_98_weights                 (512,1,1,128) (44)    
                                                                             W: conv2d_98_bias                    (128,) (47)           
                                                                             O: conv2d_98_output                  (1,1,1,128) (125)     
------ ---------------------- ---- ---------------------- ---------- ------- ------------------------------------ --------------------- 



Number of operations per c-layer
------- ------ ---------------------------------- ------------- ------------ --------- ---------- 
c_id    m_id   name (type)                                  #op         type    #param   sparsity 
------- ------ ---------------------------------- ------------- ------------ --------- ---------- 
0       0      pad_0 (pad)                                    0   smul_s8_s8           
1       2      conv2d_1 (conv2d)                      4,988,992   smul_s8_s8     1,856     0.0097 
2       4      conv2d_3_pad_before (pad)                      0   smul_s8_s8           
3       4      conv2d_3 (conv2d)                      1,892,416   smul_s8_s8       704     0.0114 
4       6      conv2d_5 (conv2d)                     22,708,352   smul_s8_s8     8,448     0.0215 
5       9      conv2d_8_pad_before (pad)                      0   smul_s8_s8           
6       7      conv2d_8 (conv2d)                        946,304   smul_s8_s8     1,408     0.0007 
7       10     conv2d_10 (conv2d)                     5,505,088   smul_s8_s8     8,256     0.0090 
8       12     conv2d_11 (conv2d)                     5,677,184   smul_s8_s8     8,448     0.0075 
9       14     conv2d_13_pad_before (pad)                     0   smul_s8_s8           
10      14     conv2d_13 (conv2d)                       946,304   smul_s8_s8     1,408     0.0036 
11      15     conv2d_15 (conv2d)                     5,505,088   smul_s8_s8     8,256     0.0110 
12      16     eltwise_16 (eltwise_integer/sum)          43,008     op_s8_s8           
13      18     conv2d_17 (conv2d)                     5,677,184   smul_s8_s8     8,448     0.0091 
14      20     conv2d_19_pad_before (pad)                     0   smul_s8_s8           
15      20     conv2d_19 (conv2d)                       946,304   smul_s8_s8     1,408     0.0057 
16      21     conv2d_21 (conv2d)                     5,505,088   smul_s8_s8     8,256     0.0088 
17      22     eltwise_22 (eltwise_integer/sum)          43,008     op_s8_s8           
18      24     conv2d_23 (conv2d)                     5,677,184   smul_s8_s8     8,448     0.0085 
19      26     conv2d_25_pad_before (pad)                     0   smul_s8_s8           
20      26     conv2d_25 (conv2d)                       946,304   smul_s8_s8     1,408     0.0036 
21      27     conv2d_27 (conv2d)                     5,505,088   smul_s8_s8     8,256     0.0093 
22      28     eltwise_28 (eltwise_integer/sum)          43,008     op_s8_s8           
23      30     conv2d_29 (conv2d)                     5,677,184   smul_s8_s8     8,448     0.0078 
24      32     conv2d_31_pad_before (pad)                     0   smul_s8_s8           
25      32     conv2d_31 (conv2d)                       946,304   smul_s8_s8     1,408     0.0114 
26      33     conv2d_33 (conv2d)                     5,505,088   smul_s8_s8     8,256     0.0105 
27      34     eltwise_34 (eltwise_integer/sum)          43,008     op_s8_s8           
28      36     conv2d_35 (conv2d)                    11,354,368   smul_s8_s8    16,896     0.0090 
29      39     conv2d_38_pad_before (pad)                     0   smul_s8_s8           
30      37     conv2d_38 (conv2d)                       473,344   smul_s8_s8     2,816     0.0018 
31      40     conv2d_40 (conv2d)                     5,505,152   smul_s8_s8    32,896     0.0100 
32      42     conv2d_41 (conv2d)                     5,591,296   smul_s8_s8    33,280     0.0085 
33      44     conv2d_43_pad_before (pad)                     0   smul_s8_s8           
34      44     conv2d_43 (conv2d)                       473,344   smul_s8_s8     2,816     0.0050 
35      45     conv2d_45 (conv2d)                     5,505,152   smul_s8_s8    32,896     0.0096 
36      46     eltwise_46 (eltwise_integer/sum)          21,504     op_s8_s8           
37      48     conv2d_47 (conv2d)                     5,591,296   smul_s8_s8    33,280     0.0096 
38      50     conv2d_49_pad_before (pad)                     0   smul_s8_s8           
39      50     conv2d_49 (conv2d)                       473,344   smul_s8_s8     2,816     0.0067 
40      51     conv2d_51 (conv2d)                     5,505,152   smul_s8_s8    32,896     0.0097 
41      52     eltwise_52 (eltwise_integer/sum)          21,504     op_s8_s8           
42      54     conv2d_53 (conv2d)                     5,591,296   smul_s8_s8    33,280     0.0090 
43      56     conv2d_55_pad_before (pad)                     0   smul_s8_s8           
44      56     conv2d_55 (conv2d)                       473,344   smul_s8_s8     2,816     0.0078 
45      57     conv2d_57 (conv2d)                     5,505,152   smul_s8_s8    32,896     0.0095 
46      58     eltwise_58 (eltwise_integer/sum)          21,504     op_s8_s8           
47      60     conv2d_59 (conv2d)                     5,591,296   smul_s8_s8    33,280     0.0100 
48      62     conv2d_61_pad_before (pad)                     0   smul_s8_s8           
49      62     conv2d_61 (conv2d)                       473,344   smul_s8_s8     2,816     0.0103 
50      63     conv2d_63 (conv2d)                     5,505,152   smul_s8_s8    32,896     0.0099 
51      64     eltwise_64 (eltwise_integer/sum)          21,504     op_s8_s8           
52      66     conv2d_65 (conv2d)                     5,591,296   smul_s8_s8    33,280     0.0090 
53      68     conv2d_67_pad_before (pad)                     0   smul_s8_s8           
54      68     conv2d_67 (conv2d)                       473,344   smul_s8_s8     2,816     0.0092 
55      69     conv2d_69 (conv2d)                     5,505,152   smul_s8_s8    32,896     0.0100 
56      70     eltwise_70 (eltwise_integer/sum)          21,504     op_s8_s8           
57      72     conv2d_71 (conv2d)                     5,591,296   smul_s8_s8    33,280     0.0083 
58      74     conv2d_73_pad_before (pad)                     0   smul_s8_s8           
59      74     conv2d_73 (conv2d)                       473,344   smul_s8_s8     2,816     0.0099 
60      75     conv2d_75 (conv2d)                     5,505,152   smul_s8_s8    32,896     0.0099 
61      76     eltwise_76 (eltwise_integer/sum)          21,504     op_s8_s8           
62      78     conv2d_77 (conv2d)                    11,182,592   smul_s8_s8    66,560     0.0091 
63      81     conv2d_80_pad_before (pad)                     0   smul_s8_s8           
64      79     conv2d_80 (conv2d)                       237,056   smul_s8_s8     5,632     0.0021 
65      82     conv2d_82 (conv2d)                     2,752,640   smul_s8_s8    65,664     0.0117 
66      84     conv2d_83 (conv2d)                     1,398,016   smul_s8_s8    33,280     0.0085 
67      86     conv2d_85_pad_before (pad)                     0   smul_s8_s8           
68      86     conv2d_85 (conv2d)                       118,528   smul_s8_s8     2,816     0.0067 
69      87     conv2d_87 (conv2d)                     1,376,384   smul_s8_s8    32,896     0.0106 
70      88     eltwise_88 (eltwise_integer/sum)           5,376     op_s8_s8           
71      90     conv2d_89 (conv2d)                     1,398,016   smul_s8_s8    33,280     0.0084 
72      92     conv2d_91_pad_before (pad)                     0   smul_s8_s8           
73      92     conv2d_91 (conv2d)                       118,528   smul_s8_s8     2,816     0.0075 
74      93     conv2d_93 (conv2d)                     1,376,384   smul_s8_s8    32,896     0.0106 
75      94     eltwise_94 (eltwise_integer/sum)           5,376     op_s8_s8           
76      96     conv2d_95 (conv2d)                     2,796,032   smul_s8_s8    66,560     0.0098 
77      97     conv2d_97 (conv2d)                        22,016   smul_s8_s8    22,016     0.0181 
78      98     conv2d_98 (conv2d)                        65,664   smul_s8_s8    65,664     0.0115 
------- ------ ---------------------------------- ------------- ------------ --------- ---------- 
total                                               194,460,736                989,760     0.0099 

Number of operation types
---------------- ------------- ----------- 
operation type               #           % 
---------------- ------------- ----------- 
smul_s8_s8         194,148,928       99.8% 
op_s8_s8               311,808        0.2% 

Complexity report (model)
------ -------------------------- ------------------------- ------------------------- ---------- 
m_id   name                       c_macc                    c_rom                     c_id       
------ -------------------------- ------------------------- ------------------------- ---------- 
0      serving_default_input_30   |                  0.0%   |                  0.0%   [0]        
2      nl_2                       ||||               2.6%   |                  0.2%   [1]        
4      nl_4                       ||                 1.0%   |                  0.1%   [2, 3]     
6      nl_6                       ||||||||||||||||  11.7%   ||                 0.9%   [4]        
7      pad_7                      |                  0.5%   |                  0.2%   [6]        
9      nl_9                       |                  0.0%   |                  0.0%   [5]        
10     conv2d_10                  ||||               2.8%   ||                 0.8%   [7]        
12     nl_12                      ||||               2.9%   ||                 0.9%   [8]        
14     nl_14                      |                  0.5%   |                  0.2%   [9, 10]    
15     conv2d_15                  ||||               2.8%   ||                 0.8%   [11]       
16     eltwise_16                 |                  0.0%   |                  0.0%   [12]       
18     nl_18                      ||||               2.9%   ||                 0.9%   [13]       
20     nl_20                      |                  0.5%   |                  0.2%   [14, 15]   
21     conv2d_21                  ||||               2.8%   ||                 0.8%   [16]       
22     eltwise_22                 |                  0.0%   |                  0.0%   [17]       
24     nl_24                      ||||               2.9%   ||                 0.9%   [18]       
26     nl_26                      |                  0.5%   |                  0.2%   [19, 20]   
27     conv2d_27                  ||||               2.8%   ||                 0.8%   [21]       
28     eltwise_28                 |                  0.0%   |                  0.0%   [22]       
30     nl_30                      ||||               2.9%   ||                 0.9%   [23]       
32     nl_32                      |                  0.5%   |                  0.2%   [24, 25]   
33     conv2d_33                  ||||               2.8%   ||                 0.8%   [26]       
34     eltwise_34                 |                  0.0%   |                  0.0%   [27]       
36     nl_36                      ||||||||           5.8%   ||||               1.7%   [28]       
37     pad_37                     |                  0.2%   |                  0.4%   [30]       
39     nl_39                      |                  0.0%   |                  0.0%   [29]       
40     conv2d_40                  ||||               2.8%   ||||||||           3.3%   [31]       
42     nl_42                      ||||               2.9%   ||||||||           3.3%   [32]       
44     nl_44                      |                  0.2%   |                  0.4%   [33, 34]   
45     conv2d_45                  ||||               2.8%   ||||||||           3.3%   [35]       
46     eltwise_46                 |                  0.0%   |                  0.0%   [36]       
48     nl_48                      ||||               2.9%   ||||||||           3.3%   [37]       
50     nl_50                      |                  0.2%   |                  0.4%   [38, 39]   
51     conv2d_51                  ||||               2.8%   ||||||||           3.3%   [40]       
52     eltwise_52                 |                  0.0%   |                  0.0%   [41]       
54     nl_54                      ||||               2.9%   ||||||||           3.3%   [42]       
56     nl_56                      |                  0.2%   |                  0.4%   [43, 44]   
57     conv2d_57                  ||||               2.8%   ||||||||           3.3%   [45]       
58     eltwise_58                 |                  0.0%   |                  0.0%   [46]       
60     nl_60                      ||||               2.9%   ||||||||           3.3%   [47]       
62     nl_62                      |                  0.2%   |                  0.4%   [48, 49]   
63     conv2d_63                  ||||               2.8%   ||||||||           3.3%   [50]       
64     eltwise_64                 |                  0.0%   |                  0.0%   [51]       
66     nl_66                      ||||               2.9%   ||||||||           3.3%   [52]       
68     nl_68                      |                  0.2%   |                  0.4%   [53, 54]   
69     conv2d_69                  ||||               2.8%   ||||||||           3.3%   [55]       
70     eltwise_70                 |                  0.0%   |                  0.0%   [56]       
72     nl_72                      ||||               2.9%   ||||||||           3.3%   [57]       
74     nl_74                      |                  0.2%   |                  0.4%   [58, 59]   
75     conv2d_75                  ||||               2.8%   ||||||||           3.3%   [60]       
76     eltwise_76                 |                  0.0%   |                  0.0%   [61]       
78     nl_78                      ||||||||           5.8%   ||||||||||||||||   6.7%   [62]       
79     pad_79                     |                  0.1%   ||                 0.7%   [64]       
81     nl_81                      |                  0.0%   |                  0.0%   [63]       
82     conv2d_82                  ||                 1.4%   |||||||||||||||    6.5%   [65]       
84     nl_84                      |                  0.7%   ||||||||           3.3%   [66]       
86     nl_86                      |                  0.1%   |                  0.4%   [67, 68]   
87     conv2d_87                  |                  0.7%   ||||||||           3.3%   [69]       
88     eltwise_88                 |                  0.0%   |                  0.0%   [70]       
90     nl_90                      |                  0.7%   ||||||||           3.3%   [71]       
92     nl_92                      |                  0.1%   |                  0.4%   [72, 73]   
93     conv2d_93                  |                  0.7%   ||||||||           3.3%   [74]       
94     eltwise_94                 |                  0.0%   |                  0.0%   [75]       
96     nl_96                      ||                 1.4%   ||||||||||||||||   6.7%   [76]       
97     conv2d_97                  |                  0.0%   ||||||             2.3%   [77]       
98     conv2d_98                  |                  0.0%   |||||||||||||||    6.5%   [78]       
------ -------------------------- ------------------------- ------------------------- ---------- 
macc=194,460,736 weights=1,019,136 act=380,416 ram_io=0

Generated files (7)
-------------------------------------------------------------------- 
C:\Users\19178\.stm32cubemx\network_output\network_1_config.h        
C:\Users\19178\.stm32cubemx\network_output\network_1.h               
C:\Users\19178\.stm32cubemx\network_output\network_1.c               
C:\Users\19178\.stm32cubemx\network_output\network_1_data_params.h   
C:\Users\19178\.stm32cubemx\network_output\network_1_data_params.c   
C:\Users\19178\.stm32cubemx\network_output\network_1_data.h          
C:\Users\19178\.stm32cubemx\network_output\network_1_data.c          
